ai_src/saved_models/model_MNISTDigits28x28_DoubleLayerNeuralNet_79.pt (torch, 475855 bytes, 6 tensors)

linear1.weight f4 [128, 784]
0	0xbcf07c9c	-0.029356293
1	0x3b38ced0	0.0028199442
2	0x3c03f0a0	0.008052975
3	0xbce7b2fa	-0.028283585
4	0xbc9f8b40	-0.01947558
5	0x3cdf260e	0.027239826
6	0x3ca17586	0.01970936
7	0xbcc45355	-0.023965517
8	0x3b92cf40	0.0044802725
9	0x3cda7e48	0.026671544
10	0x3cb8b398	0.022546574
11	0xbb88d268	-0.004175473
12	0xbc0ad407	-0.008473403
13	0xbd0f6171	-0.035005037
14	0xbc11628d	-0.008873594
15	0xbc8678be	-0.016414996
16	0xbcb04c7e	-0.02152085
17	0x3c9c7820	0.019100249
18	0x3cd6760c	0.026179336
19	0x3cd1df48	0.025619164
20	0xbc0a935c	-0.008457985
21	0x3ce78eee	0.028266396
22	0xbd0a3aba	-0.033747412
23	0x3d0393c9	0.03212336
24	0x3cd79e9a	0.026320744
25	0xbc07f26e	-0.008297546
26	0xbc820c7a	-0.01587509
27	0xbd0052f0	-0.031329095
28	0x3c6ed274	0.014576543
29	0x3d0a809b	0.033814054
30	0xbcf7e751	-0.030261667
31	0x3cc555e2	0.024088804
32	0xbcb30343	-0.021852141
33	0xbcf3ecfe	-0.029776093
34	0x3b48c395	0.0030634154
35	0x3ca54d47	0.02017845
36	0xbc8d56b0	-0.01725325
37	0xbd0b36b8	-0.03398773
38	0x3c8d6025	0.01725776
39	0x3aab0016	0.001304629
40	0x3c5deac1	0.013544739
41	0x3c32a3e6	0.010903334
42	0x3ce75588	0.028239027
43	0x3aa302e9	0.001243678
44	0x3c7c77cb	0.01540942
45	0x3c70828a	0.01467956
46	0x3ce7c5c6	0.028292548
47	0x3c69b41c	0.014264133
48	0xbd0160b8	-0.03158638
49	0x3cb42a37	0.021992786
50	0xbc91e352	-0.01780859
51	0xba91df1b	-0.0011129113
52	0x3cb9118e	0.022591379
53	0xbc977bfc	-0.018491738
54	0xbb261ba0	-0.0025346056
55	0xbb9a7f94	-0.0047149155
56	0x3ca1ecac	0.019766174
57	0x3c94c9a2	0.018162552
58	0x3ca5add8	0.020224497
59	0x3a432bb1	0.000744517
60	0xba157c72	-0.0005702443
61	0xbb902708	-0.004399184
62	0x3d0ed60c	0.0348721
63	0xbbca5ef0	-0.006175868
64	0xbc1d790a	-0.0096113775
65	0xbcc13813	-0.023586309
66	0x3bd4ea8e	0.0064976877
67	0x3bc2a256	0.005939762
68	0xbd08d3ae	-0.033405
69	0xbbf72352	-0.0075420523
70	0x3ce3fc8c	0.027830385
71	0x3c4208f6	0.011842957
72	0x3cf1b0f7	0.029503329
73	0xbd03ded2	-0.03219492
74	0x3c364c86	0.011126643
75	0xbcc0da3f	-0.023541568
76	0xbc9a19cb	-0.018811127
77	0x3ca9c898	0.020725533
78	0xbc851318	-0.016244456
79	0xbcb44277	-0.02200435
80	0xbd0c7fa0	-0.0343014
81	0xbc4d901d	-0.012546566
82	0x391cc700	0.00014951453
83	0x3cee072e	0.029056158
84	0x3d0ab2db	0.033861976
85	0xba957020	-0.0011401214
86	0x3b71495c	0.0036817407
87	0xbbba9173	-0.0056936084
88	0xbbdd1515	-0.006746898
89	0x3cc88f82	0.024482492
90	0xbc2a84a5	-0.0104076015
91	0xbc85e423	-0.016344136
92	0xbd02a11b	-0.031891923
93	0xbc8c65fc	-0.017138474
94	0x3cfab882	0.030605558
95	0xbcab25dc	-0.020892076
96	0x3c0c1f0c	0.008552324
97	0xbc510e61	-0.012759776
98	0xbcf167c1	-0.029468419
99	0x3c412adb	0.011790003
100	0xbc719d1a	-0.014746929
101	0x3caca2e6	0.02107377
102	0xbc128a39	-0.008944088
103	0xbbd4c17a	-0.0064927908
104	0xbcc65494	-0.024210252
105	0xbc1ae41f	-0.009453802
106	0xbb6e2271	-0.0036336447
107	0xbc920246	-0.01782335
108	0xbca6a195	-0.02034072
109	0x3cd68758	0.026187584
110	0xbb549d90	-0.0032442547
111	0xbd04957c	-0.032369122
112	0xbd0a934b	-0.033831876
113	0xbc2450ba	-0.010029012
114	0x3c1771e4	0.009243462
115	0xbc0eda89	-0.008719095
116	0xbd03c728	-0.032172352
117	0x3cb43afd	0.022000784
118	0x3c98deed	0.018660987
119	0x3cd21731	0.025645824
120	0xbc1c3a2f	-0.009535356
121	0xbcce18ae	-0.025158253
122	0xbcaa67a8	-0.02080138
123	0x3c87924b	0.01654925
124	0xbc138c7f	-0.009005665
125	0xbbca875b	-0.0061806864
126	0xbbb59f83	-0.005542697
127	0x3cfa3577	0.030543072
128	0x3cde532c	0.027139269
129	0x3cb7a042	0.022415284
130	0xbc8fbad1	-0.017545136
131	0x3c967525	0.018366406
132	0x3c8acd2d	0.016943539
133	0xbcf19a8f	-0.029492645
134	0xbcca6229	-0.02470501
135	0x3ceeb8b5	0.02914081
136	0xbc2cec32	-0.01055436
137	0x3bbf61b3	0.005840504
138	0x3ced8330	0.02899322
139	0x3b82ccee	0.0039917147
140	0x3a887760	0.0010411553
141	0xbcf45ce5	-0.029829452
142	0xbbf3b01f	-0.0074367668
143	0xbc9d6504	-0.019213207
144	0x3c96e5c7	0.018420113
145	0xbc6dc713	-0.014512795
146	0xbbcbe765	-0.0062226527
147	0xbad907c1	-0.0016558097
148	0x3cea161a	0.028574992
149	0xbb45a124	-0.0030155862
150	0x3b32890c	0.002724233
151	0x3d1108a9	0.03540865
152	0x3ce797d2	0.028270636
153	0x3cf0abc6	0.029378783
154	0xbd185e6d	-0.037199426
155	0x3c7bfe41	0.015380443
156	0xbc0296ba	-0.007970506
157	0x3ca4f334	0.0201355
158	0x3d01642a	0.031589665
159	0xbc85c687	-0.016330017
160	0xbca97adc	-0.020688467
161	0xbca51e7f	-0.020156143
162	0xbc709fd7	-0.014686546
163	0xbccb49af	-0.024815409
164	0xbc94b89c	-0.018154435
165	0xbd0592c8	-0.032610685
166	0xbb90448c	-0.0044027027
167	0xbc2eec71	-0.010676489
168	0xbc83ee33	-0.016104793
169	0x3cfa0438	0.03051959
170	0x3ccc45c8	0.024935618
171	0xbc7fa53a	-0.015603358
172	0x3a3af017	0.0007131113
173	0xbbc25c38	-0.0059314035
174	0x3b80e176	0.003933127
175	0x3ca4aee4	0.020102926
176	0x3d125259	0.035723064
177	0x3d06ecee	0.032940798
178	0xbbd3fffb	-0.0064697242
179	0xbc4a0da7	-0.012332357
180	0xbd04689f	-0.032326337
181	0x3c705860	0.014669508
182	0x3bb24e37	0.005441453
183	0xbc7e38f8	-0.015516512
184	0xbc9a8824	-0.018863745
185	0x3cdf79d2	0.027279768
186	0xbcc9106a	-0.02454396
187	0xbc48ba5b	-0.012251462
188	0xbc3f6754	-0.01168235
189	0x3d098727	0.033576157
190	0xbb403c5b	-0.002933285
191	0x3b1731cb	0.002307045
192	0x3c2b181e	0.010442762
193	0xbc9a5a36	-0.018841844
194	0xbc8d383a	-0.017238725
195	0xbd0a761b	-0.03380404
196	0x3b3ac420	0.0028498247
197	0xbae2ee3c	-0.0017313431
198	0xbc17431e	-0.009232311
199	0x35f216a7	1.8036998e-06
200	0xbc01e5a7	-0.007928289
201	0x3cb7e02b	0.022445759
202	0x3c2a1a22	0.010382207
203	0xbc8b969b	-0.017039588
204	0xbc96d644	-0.018412717
205	0xbcbb7b99	-0.022886084
206	0x3c733bff	0.014845847
207	0x3ce12933	0.027485466
208	0xbbc91b32	-0.006137275
209	0xbd073242	-0.033006914
210	0xbd0a400d	-0.03375249
211	0x3c688078	0.014190786
212	0xbc121c3f	-0.008917867
213	0xbc3f6202	-0.011681082
214	0xbb7104fa	-0.0036776648
215	0x3aff875d	0.0019495297
216	0xbc79895d	-0.015230504
217	0x3cd664d3	0.026171124
218	0x388bc8ed	6.665462e-05
219	0x3d09d75b	0.033652645
220	0x3ca92e84	0.020652063
221	0xbd0f0844	-0.034919992
222	0x3c13d833	0.009023714
223	0xbcd1297f	-0.025532482
224	0xbc9ea423	-0.019365376
225	0xbcce9920	-0.0252195
226	0xbc5d8d41	-0.013522447
227	0xbc090801	-0.008363725
228	0x3c836411	0.016038926
229	0x3d0fe571	0.03513092
230	0xbcc12d7e	-0.023581263
231	0xbbeafb72	-0.007171088
232	0x3bdb9f3c	0.006702332
233	0xbc63f245	-0.013912742
234	0x3a64c9f7	0.0008727605
235	0xbb52b024	-0.0032148445
236	0xbc67cd4f	-0.0141480705
237	0x3cf8d396	0.03037433
238	0x3a983aeb	0.0011614239
239	0xbb9bc4f2	-0.0047537023
240	0xbc003c71	-0.00782691
241	0x3c6506dd	0.013978687
242	0x3c263631	0.010144756
243	0xbced55ca	-0.028971571
244	0xbae91c2b	-0.0017784884
245	0xbca0a68c	-0.019610666
246	0xbb3f9fc0	-0.0029239506
247	0xbbcc1fdc	-0.006229384
248	0x3cd7225b	0.0262615
249	0xbc66175d	-0.014043656
250	0xbc569dfe	-0.013099192
251	0xbcf85e3d	-0.030318374
252	0x3d0104a6	0.031498574
253	0xbcf20133	-0.029541587
254	0x3a8a9003	0.0010571483
255	0xbc10c4d4	-0.00883599

linear1.bias f4 [128]
0	0xbcd24b14	-0.025670566
1	0x3cc14bcc	0.023595713
2	0x3c58edb5	0.0132402675
3	0xbc8b7a7e	-0.017026182
4	0xbb30a384	-0.0026952932
5	0xbcfb2ad9	-0.03066008
6	0x3cfd17b5	0.030895093
7	0xbd11e4b7	-0.03561851
8	0x3bc0fc7b	0.005889473
9	0xbc7a21b9	-0.015266829
10	0x3ab9803e	0.0014152599
11	0x3ccb9f6c	0.024856292
12	0x3c90384a	0.017604966
13	0xbcdd8f5e	-0.027045902
14	0xba0ae472	-0.0005298323
15	0xbbb2bf50	-0.005454935
16	0x3b793601	0.0038026574
17	0x3ce19856	0.02753846
18	0xbbb21619	-0.005434763
19	0xbd0e657f	-0.034764763
20	0xbc14c711	-0.009080664
21	0x3bcd987a	0.00627428
22	0xbb893f1c	-0.0041884314
23	0x3d066d8e	0.032819323
24	0xbb9e71f7	-0.004835363
25	0xbc779cd8	-0.015113078
26	0xbc1efa14	-0.009703178
27	0x3cd8157c	0.026377432
28	0xbc89c297	-0.01681642
29	0xbd11745c	-0.03551136
30	0xbc8bbf3f	-0.017058967
31	0x3d0d8141	0.034547094
32	0x3ac15867	0.0014751077
33	0x3d0de58f	0.034642752
34	0xbccde193	-0.025131976
35	0xbcc59b98	-0.024122044
36	0xbc13a1bc	-0.009010728
37	0x3cd2ebf8	0.025747284
38	0xbc6bb72e	-0.014386935
39	0xbc1a7b00	-0.00942874
40	0xbc670bd0	-0.014101937
41	0x3d0a83f4	0.033817247
42	0xbd0488db	-0.032357078
43	0x39a14328	0.00030758348
44	0xbc1ae0e1	-0.009453029
45	0xbcdb9c92	-0.026808057
46	0x3ccc1932	0.024914358
47	0x3d092e33	0.033491325
48	0x3ce65601	0.028117182
49	0xbcc7daf9	-0.024396406
50	0x3cf68a4a	0.030095238
51	0xbd108471	-0.035282556
52	0xbba3e411	-0.005001553
53	0xbc0cb161	-0.008587212
54	0xbbcd1d89	-0.0062596244
55	0xbd11cc6e	-0.03559535
56	0xbbb8e075	-0.0056419917
57	0x3c825055	0.015907446
58	0xbd1055b4	-0.035237983
59	0x3cedb282	0.029015783
60	0x3d108ec7	0.035292413
61	0x3cd83e97	0.026397033
62	0xbce22923	-0.027607506
63	0xbc474399	-0.012162113
64	0x3c1ee813	0.0096988855
65	0xbcc77421	-0.024347367
66	0x3ce895f1	0.02839181
67	0x3ca9ab0c	0.020711444
68	0xbc73e0fa	-0.014885182
69	0x3cf2f94a	0.029659886
70	0xbce430c6	-0.027855288
71	0xbd048516	-0.032353483
72	0xb84a600e	-4.825001e-05
73	0xbbbd37fd	-0.0057744966
74	0xbcbd4642	-0.02310479
75	0xbb850cb8	-0.004060354
76	0xbca80f80	-0.020515203
77	0xbc4b0741	-0.012391866
78	0xbc808928	-0.015690401
79	0xbceb4701	-0.02872038
80	0xbcf11042	-0.029426698
81	0x3cf75302	0.030190948
82	0x3b934b60	0.0044950694
83	0xbc0cae1d	-0.008586434
84	0xbc8f4da2	-0.017493073
85	0x3d0a42df	0.03375518
86	0x3afbdefb	0.0019216234
87	0xbc92f6a2	-0.01793987
88	0x3cfbead1	0.030751618
89	0xbcc24f9e	-0.023719605
90	0x3cd9e893	0.026600158
91	0xbca9bd35	-0.020720104
92	0x3b211b9f	0.0024583114
93	0x3ce7b25f	0.028283296
94	0xbd0c30c2	-0.034226187
95	0x3cff661b	0.031176617
96	0xbcd472c6	-0.025933634
97	0xbca8ce94	-0.020606317
98	0xbc490198	-0.012268446
99	0x3c034e74	0.00801431
100	0xbcf15de7	-0.029463721
101	0xbc1f2891	-0.009714262
102	0xbce95186	-0.028481256
103	0x3cf04da5	0.029333899
104	0xbca173ac	-0.019708477
105	0xbc77eb93	-0.015131849
106	0x3c51f40a	0.012814531
107	0x3d00215d	0.031281818
108	0xbc9b1093	-0.018928802
109	0xbd0f6197	-0.03500518
110	0xbce83c48	-0.028349057
111	0xbca53f3c	-0.020171754
112	0x3d103ada	0.035212375
113	0x3c534c29	0.012896576
114	0xbcbc503e	-0.022987481
115	0x3b941ea4	0.004520254
116	0x3ceddaef	0.02903506
117	0x3bf9c8f6	0.0076228334
118	0xbc8faae7	-0.017537547
119	0xbcff5dbc	-0.031172626
120	0x3d0cb024	0.03434767
121	0x3c34f53a	0.011044795
122	0x3c040e07	0.008059985
123	0x3c3dd7bd	0.011587081
124	0xbcb1b2d5	-0.02169172
125	0xbc8bf50b	-0.017084619
126	0x3cf18c8d	0.029485965
127	0x3bfa9fa3	0.0076484247

linear2.weight f4 [128, 128]
0	0x3a944cf3	0.0011314437
1	0xbd33932e	-0.043841533
2	0x3ccb01e3	0.024781173
3	0xbceadcfb	-0.028669825
4	0x3daadfd5	0.08343474
5	0x3d23b208	0.039964706
6	0x3da45a32	0.08025016
7	0xbc44d0d4	-0.012012679
8	0x3d70692f	0.05869406
9	0xbc4e24c5	-0.012582009
10	0xbd76a802	-0.06021882
11	0x3d4ae12c	0.049531147
12	0xbbe3f682	-0.0069568763
13	0xbda065b2	-0.07831897
14	0xbd85f11b	-0.06540128
15	0xbc8b89f8	-0.017033562
16	0x3d98e74f	0.074659936
17	0x3a87039f	0.0010300762
18	0x3d9b26fe	0.075757965
19	0xbd233d95	-0.03985365
20	0xbd939c3d	-0.072075345
21	0x3d0c70f8	0.034287423
22	0xbc359117	-0.011081955
23	0xbdab3bf7	-0.08361047
24	0x3c96f11a	0.018425513
25	0x3d0697bc	0.03285955
26	0x3ca9adf9	0.02071284
27	0xbd6afc82	-0.057369716
28	0x3d21b288	0.0394769
29	0x3d8ffbb6	0.07030432
30	0x3d0434cb	0.03227691
31	0x3d7248f9	0.059151623
32	0x3d18f8b1	0.037346546
33	0xbd2b3186	-0.041795276
34	0x3cd6f3ce	0.026239302
35	0x3dae1e00	0.08501816
36	0x3d8b5a47	0.068043284
37	0x3d8fca6e	0.07021032
38	0x3c85640d	0.01628306
39	0x3d936806	0.07197575
40	0x3da67cfa	0.08129306
41	0x3d4046a1	0.046942357
42	0x3d87c2e4	0.06628969
43	0x3c808a0e	0.01569083
44	0x3cfb7435	0.03069506
45	0x3d09021b	0.033449274
46	0x3d2f9974	0.042870954
47	0xbd2bbe4b	-0.041929524
48	0x3ccb7193	0.02483443
49	0x3d56b874	0.052422002
50	0x3c84a567	0.016192151
51	0x3cd27c72	0.025694106
52	0xbd943fc0	-0.07238722
53	0xbbda44f2	-0.006661051
54	0x3c9df0d4	0.019279875
55	0x3c0fa9b5	0.008768489
56	0x3caca47c	0.021074526
57	0x3cd083a4	0.025453396
58	0x3d89443a	0.06702466
59	0x3c55105e	0.0130043905
60	0xbd0e9318	-0.03480825
61	0x3d775e58	0.060392708
62	0x3d064baa	0.032787003
63	0xbda6d97a	-0.08146949
64	0xbd488761	-0.048957232
65	0x3ccf5b97	0.025312228
66	0xbcdc76e4	-0.02691216
67	0x3c21f858	0.00988587
68	0xbd0fce42	-0.035108812
69	0xbc86f447	-0.016473902
70	0xbd4c8a36	-0.049936496
71	0x3daee4cb	0.085397325
72	0x3ca2d9f0	0.019879311
73	0xbd7cfeeb	-0.061766546
74	0x3d94b5a3	0.07261207
75	0xbd13fb2f	-0.03612822
76	0x3befb84e	0.007315672
77	0x3d79e46e	0.061008863
78	0x3d6199ba	0.055078246
79	0xbd94a1db	-0.07257434
80	0x3d8bd4e0	0.06827712
81	0xbccd3fb6	-0.025054794
82	0xbd0fcfd9	-0.03511033
83	0xbd957fd2	-0.072997704
84	0x3d9d2de1	0.07674766
85	0xbc1112c9	-0.008854576
86	0xbd7f0179	-0.062257264
87	0xbc5fe8b5	-0.0136663215
88	0x3c00c13f	0.007858573
89	0x3d16f070	0.036850393
90	0x3d831806	0.064010665
91	0xbd516a18	-0.05112657
92	0xbd547a92	-0.051874705
93	0xbc846604	-0.016161926
94	0x3dae9e46	0.08526282
95	0xbd9e098b	-0.07716664
96	0x3c382a33	0.01124053
97	0xbc879076	-0.016548377
98	0xbd9315a8	-0.07181865
99	0xbd937e7f	-0.072018616
100	0xbdaa0205	-0.083011664
101	0x3d0a832a	0.033816494
102	0xbd6bd8cc	-0.0575798
103	0x3d5f6d38	0.05454752
104	0x3d6fff31	0.05859298
105	0x3d4cf3b9	0.05003712
106	0xbd33957c	-0.04384373
107	0xbc98a5fd	-0.018633837
108	0x3d82e9e0	0.06392264
109	0x3ce6ff85	0.028198013
110	0xbd2c5bd6	-0.04207977
111	0x3d40aeed	0.047041822
112	0xbce0f56a	-0.027460773
113	0x3d2c9c08	0.04214099
114	0x3d138af6	0.036021195
115	0x3d8585e0	0.06519675
116	0x3d934ba8	0.07192165
117	0x3d81a958	0.06331128
118	0xbc8069e4	-0.015675493
119	0xbb266cd5	-0.0025394459
120	0x3aa654a2	0.0012690017
121	0x3d22c6cd	0.039740372
122	0xbd286ea5	-0.041121144
123	0x3ca9a242	0.020707253
124	0xbd475581	-0.048665527
125	0xbd517f2e	-0.05114668
126	0xbd93befb	-0.07214161
127	0x3ce6efcc	0.028190516
128	0x3b84bcac	0.0040508118
129	0xbc9ebfe4	-0.01937861
130	0xbda83e82	-0.082150474
131	0xbd86a981	-0.06575299
132	0x3c5105d7	0.01275774
133	0xbd5f458b	-0.05450968
134	0x3ae2a250	0.0017290805
135	0xbd31a7ff	-0.043373104
136	0x3da130f5	0.07870666
137	0x3d0c869f	0.034308072
138	0x3cdce0e3	0.026962703
139	0x3d533d9f	0.05157244
140	0xbd42a6f3	-0.047522496
141	0x3bfd4edd	0.0077303485
142	0xbbd80f68	-0.0065936334
143	0x3da9112d	0.08255229
144	0x3d5c9f93	0.05386312
145	0x3c1f52c6	0.009724325
146	0x3ceffd40	0.029295564
147	0x3da37153	0.07980599
148	0x3daa3908	0.08311659
149	0x3d95a069	0.073059864
150	0xbd9ed054	-0.07754579
151	0x3ba34911	0.0049830754
152	0xbd0785c2	-0.033086546
153	0x3c167141	0.009182275
154	0x3cbb210a	0.022842903
155	0xbd869165	-0.065707006
156	0x3d838b67	0.06423073
157	0x3d9d1d39	0.076715894
158	0xbd40f76f	-0.04711097
159	0x3d3dc1c6	0.046327375
160	0xbd7c0af6	-0.06153389
161	0x3d8fbae2	0.07018067
162	0x3d887998	0.06663817
163	0xbd79dc4d	-0.06100111
164	0x3d963f33	0.07336273
165	0xbb939af7	-0.0045045572
166	0x3d594378	0.05304286
167	0xbbeb97f7	-0.0071897465
168	0xbd40057a	-0.046880223
169	0xbc88e00f	-0.016708402
170	0xbcfd9656	-0.030955475
171	0xbd031cb3	-0.03200979
172	0x3d228fdb	0.039687973
173	0x3b8ea824	0.00435354
174	0x3ca100cd	0.019653702
175	0x3cb54fc4	0.022132762
176	0x3c6efb5b	0.014586295
177	0x3d869027	0.06570464
178	0xbdaf441a	-0.08557911
179	0x3cce63a0	0.02519399
180	0x3d01e70d	0.031714488
181	0x3db0ccd2	0.086328164
182	0x3c46bfb5	0.012130667
183	0x3d529ce5	0.051419158
184	0x3dab7c88	0.08373362
185	0xbb886dc8	-0.0041634776
186	0x3d55d9c9	0.05220965
187	0x3b108382	0.002205104
188	0x3d8ca013	0.06866469
189	0xbdacbe64	-0.08434752
190	0xbc3cc6aa	-0.011521975
191	0xbbc26975	-0.0059329816
192	0xb9ad0a3e	-0.00033004762
193	0x3daf5349	0.08560807
194	0xbc038117	-0.008026383
195	0x3c6e389a	0.014539862
196	0xbc475cc8	-0.012168117
197	0x3d247326	0.040148877
198	0x3cefdc97	0.02927999
199	0xbd2a8aa6	-0.04163613
200	0xbd9c1225	-0.07620648
201	0x3ca8abfa	0.020589817
202	0x3c0a31e2	0.008434745
203	0xbd480b7e	-0.048839085
204	0x3d42dbe7	0.047572996
205	0xbd90e762	-0.07075383
206	0x3d8007f1	0.06251515
207	0xbd7b03fd	-0.0612831
208	0xbc6d1cea	-0.014472226
209	0x3d83b6b2	0.06431331
210	0x3d841b66	0.06450538
211	0xbc0c74c0	-0.008572757
212	0xbb3a43e9	-0.0028421825
213	0xbd5e7324	-0.054309025
214	0xbd80901d	-0.062774874
215	0x3db18578	0.08668035
216	0xbcf11913	-0.029430902
217	0x3b8d60d1	0.00431452
218	0x3d7fe1b2	0.0624711
219	0xbd3893cb	-0.04506282
220	0x3b3a39bc	0.002841576
221	0xbdac4cfb	-0.0841312
222	0xbda526c1	-0.08064032
223	0xbd7478fb	-0.05968569
224	0xbcca5c5d	-0.024702245
225	0xbb82e179	-0.0039941636
226	0xbcdd7c3e	-0.027036782
227	0x3d19b891	0.037529532
228	0xbcdfe0bd	-0.027328843
229	0xbd0b3b15	-0.033991892
230	0xbd1cadaf	-0.038251575
231	0x3cc672fd	0.024224753
232	0xbd8c3ce1	-0.06847549
233	0xbd62f83f	-0.055412527
234	0x3db2c5de	0.087291464
235	0xbb9312ad	-0.0044883103
236	0x3ca46b65	0.020070741
237	0x3d4a7c37	0.049434867
238	0x3d5f9014	0.054580763
239	0x3dac0216	0.08398835
240	0x3d00464b	0.031317037
241	0x3d3688f8	0.044564217
242	0x3d9d1d25	0.076715745
243	0x3d751646	0.059835695
244	0x3d6c57ee	0.057701044
245	0xbd5b86d4	-0.05359538
246	0xbdb250c3	-0.0870681
247	0x3ca7940b	0.020456335
248	0x3d95c6d8	0.07313317
249	0xbd6c39ee	-0.057672434
250	0xbcea22ef	-0.02858111
251	0x3d9eb48d	0.07749281
252	0xbda8cbb0	-0.08241975
253	0x3c4fc58d	0.012681377
254	0x3b1c566d	0.0023855225
255	0x3d25900f	0.040420588

linear2.bias f4 [128]
0	0x3d111a31	0.03542537
1	0xbd55d856	-0.052208267
2	0x3da2be0f	0.07946407
3	0xbc8876d4	-0.016658224
4	0x3d8d474f	0.06898367
5	0x3da1679d	0.07881091
6	0xbc82c1ef	-0.015961615
7	0x3b293427	0.0025818439
8	0xbc116dd1	-0.00887628
9	0x3d0d61c3	0.03451706
10	0xbc88b404	-0.0166874
11	0xbd7ca837	-0.06168386
12	0x3cd218e0	0.025646627
13	0x3da3c1d6	0.07995956
14	0x3d2219f7	0.039575543
15	0xbdb424b4	-0.08796063
16	0xbd7193cf	-0.058978852
17	0x3d2d593e	0.042321436
18	0xbd2bf752	-0.04198391
19	0xbce0352f	-0.02736911
20	0xbcd08580	-0.025454283
21	0x3d1a3364	0.037646666
22	0x3daf92db	0.08572932
23	0xbaa4a2dd	-0.0012560744
24	0xbd393240	-0.045213938
25	0x3d6bf3c1	0.05760551
26	0xbd8a0a72	-0.067402735
27	0x3d776f18	0.06040868
28	0x3bc36678	0.005963143
29	0xbd954456	-0.07288425
30	0x3d39dbd3	0.045375656
31	0x3d30c73f	0.043158766
32	0xbbfdba5c	-0.007743163
33	0x3d289616	0.041158758
34	0x3c9bfc55	0.01904122
35	0xbd77c98d	-0.06049495
36	0xbc2eaa5a	-0.010660732
37	0xbd21b2ac	-0.039477035
38	0xbcec4eca	-0.028846163
39	0xbd8ce66f	-0.06879889
40	0xbbc57951	-0.006026425
41	0xbd73889a	-0.059456445
42	0xbcdc2a74	-0.026875712
43	0xbd192797	-0.03739127
44	0xbd7128ad	-0.058876682
45	0x3c8c44d3	0.017122662
46	0xbd9c7c59	-0.07640905
47	0xbc05ae7c	-0.008159276
48	0xbd0b72d0	-0.03404504
49	0xbd6d479d	-0.057929624
50	0x3da01926	0.07817297
51	0x3d9dfe99	0.07714576
52	0xbdacef60	-0.08444095
53	0xbcc7656e	-0.024340358
54	0x3d718c8c	0.058971927
55	0xbd49ce3f	-0.049268957
56	0xbd86d9e7	-0.0658453
57	0x3dafb015	0.08578507
58	0x3beef45e	0.0072923144
59	0xbc9fe009	-0.019516008
60	0xbd33f150	-0.043931305
61	0x3d96f487	0.07370859
62	0xbd647805	-0.055778522
63	0x3db0bbc6	0.08629565
64	0xbd3a645e	-0.045505874
65	0xbd26f215	-0.04075821
66	0x3d6c1ed9	0.057646606
67	0xbd0e7492	-0.03477914
68	0x3d71252d	0.058873344
69	0xbd80c16c	-0.06286892
70	0x3cdb4894	0.026768006
71	0x3d434e25	0.047681946
72	0xbb1502af	-0.0022737195
73	0x3d5c4798	0.053779215
74	0x3d8688af	0.06569039
75	0x3d495606	0.049154304
76	0x3d8c2b38	0.06844181
77	0xbca3a104	-0.01997424
78	0x3d801b0d	0.062551595
79	0xbd0d11a7	-0.034440663
80	0xbd9428bf	-0.07234334
81	0xbd8f9138	-0.0701012
82	0x3d07cf8b	0.033156913
83	0xbc67fdc4	-0.0141596235
84	0xbd598e0b	-0.05311398
85	0x3d0ff5f9	0.035146687
86	0x3bcbf0bc	0.006223766
87	0xbdabefd5	-0.08395354
88	0xbcd82971	-0.026386948
89	0xbbe8cc84	-0.0071044583
90	0xbcfa6d07	-0.030569566
91	0x3d994c5c	0.074852675
92	0x3d0b4a61	0.03400648
93	0xbd9de120	-0.07708955
94	0x3db46b3f	0.08809518
95	0xbbaaa770	-0.0052079484
96	0xbcbbb07e	-0.022911306
97	0x3da0b1db	0.07846423
98	0xbc1a0a99	-0.009401941
99	0x3da1ffe5	0.07910136
100	0x3d6b718f	0.057481345
101	0xbcd4e99d	-0.025990302
102	0x3da6a51b	0.0813696
103	0xbdaa9030	-0.08328283
104	0xbd9b6f76	-0.07589619
105	0xbaa29bb2	-0.001240602
106	0xbdb07e87	-0.08617883
107	0xbd6791c7	-0.05653551
108	0xbdb48478	-0.08814329
109	0x3cb48945	0.022038111
110	0x3d0db1bd	0.034593333
111	0xbd308dcd	-0.04310398
112	0x3c5f234c	0.013619255
113	0x3dadba38	0.08482784
114	0xbc9762f3	-0.0184798
115	0x3cd1ffe7	0.025634719
116	0x3cf06015	0.02934269
117	0x3d9f9ef8	0.07793993
118	0x3d86c564	0.06580618
119	0xbd1f2f43	-0.03886343
120	0xbd6690dd	-0.056290496
121	0xbd79f78e	-0.061027102
122	0x3da1b6a7	0.07896166
123	0xbd5afeb9	-0.05346558
124	0x3db1dde0	0.086848974
125	0x3d961ab1	0.0732931
126	0xbd897986	-0.06712632
127	0xbda6cde8	-0.08144742

linear3.weight f4 [10, 128]
0	0x3d615fff	0.05502319
1	0x3cecd50d	0.028910184
2	0x3da5d483	0.08097174
3	0x3d864a5a	0.0655715
4	0x3d01274c	0.031531617
5	0xbd31b51a	-0.043385603
6	0xbd6a9176	-0.05726763
7	0xbd4f64e1	-0.050633315
8	0x3cbb2245	0.02284349
9	0x3daa8bd2	0.0832745
10	0xbc9ee780	-0.019397497
11	0x3b5c9643	0.00336589
12	0x3cb94020	0.022613585
13	0x3d86af13	0.065763615
14	0xbcbd1aaf	-0.023084013
15	0x3d067ce6	0.032833956
16	0xbd849aca	-0.06474836
17	0x3d86f0e5	0.06588916
18	0xbd93fe20	-0.07226205
19	0xbcc3a1f3	-0.023880934
20	0xbd0d0de4	-0.034437075
21	0x3c05c76e	0.0081652235
22	0xbd1fbd05	-0.038998622
23	0xbcabc4c4	-0.020967849
24	0xbd178f92	-0.037002154
25	0xbda2b620	-0.07944894
26	0xbd474e37	-0.048658576
27	0xbda71c1c	-0.08159658
28	0xbd5f18d3	-0.054467034
29	0x3cc2715b	0.023735693
30	0xbbf58671	-0.0074928333
31	0xbd283675	-0.04106756
32	0x3c91651e	0.017748412
33	0xbdb06f37	-0.086149625
34	0x3d8bb0e0	0.068208456
35	0xbc1ca819	-0.009561562
36	0x3b4610b8	0.0030222367
37	0x3d2f79e6	0.04284086
38	0xbcb42e2d	-0.021994675
39	0xbd2d46da	-0.042303897
40	0x3d0ff1b0	0.0351426
41	0xbda0839b	-0.07837602
42	0x3c63cbfb	0.013903613
43	0x3d62da33	0.055383872
44	0xbd2bbf3f	-0.041930433
45	0xbd9c6e16	-0.07638185
46	0xbd4856e0	-0.048910975
47	0x3d9ebcde	0.07750867
48	0xbd2e47a8	-0.042548805
49	0x3d8479eb	0.064685665
50	0xbcb2e537	-0.021837814
51	0x3d7488f5	0.059700925
52	0x3ce266d9	0.027636932
53	0x3d8286d0	0.0637337
54	0xbda1e82f	-0.07905614
55	0x3d29d816	0.04146584
56	0xbd94f83b	-0.07273909
57	0xbdb99139	-0.09060902
58	0x3d20a2d4	0.039217785
59	0x3daf137b	0.085486375
60	0xbd071913	-0.032982897
61	0x3da0ab85	0.07845215
62	0x3d8be619	0.06830997
63	0x3bd20d90	0.006410308
64	0xbd12abf3	-0.035808515
65	0xbd890c66	-0.06691818
66	0x3d6afe77	0.057371583
67	0x3d121515	0.035664637
68	0x3d4e5c2c	0.05038087
69	0x3c3b0ccb	0.011416624
70	0xbda1c0a0	-0.078980684
71	0xbc35ceb0	-0.011096641
72	0xbc9eabe6	-0.019369077
73	0x3ccede6b	0.025252542
74	0xbd15f764	-0.036612883
75	0x3db4bc5b	0.088249885
76	0x3ca1f282	0.019768957
77	0xbd84f32d	-0.064916946
78	0x3cc0b01f	0.023521481
79	0x3d70bbc4	0.058772817
80	0xbdb698c3	-0.08915856
81	0xbcaa4f19	-0.02078967
82	0xbda2214c	-0.07916507
83	0xbd801d0d	-0.06255541
84	0xbd13d52a	-0.03609196
85	0xbb5dbf98	-0.0033836123
86	0x3d96ed7e	0.07369517
87	0x3d01f431	0.03172702
88	0xbc5d2f02	-0.013499977
89	0x3cb09816	0.021556895
90	0x3c743836	0.01490598
91	0x3d95862a	0.073009804
92	0x3da336d3	0.07969441
93	0x3d96e9b3	0.07368793
94	0x3d9edfa2	0.07757498
95	0xbd722239	-0.05911467
96	0xbd9e802e	-0.07739292
97	0xbd1a048f	-0.037602004
98	0xbd1834fa	-0.037159897
99	0x3ca8d14d	0.020607615
100	0x3d3a3cd0	0.04546815
101	0x3d1c3eda	0.038145877
102	0xbc2c07ea	-0.010499934
103	0x3d4cd121	0.05000413
104	0x3d279e33	0.040922355
105	0x3d96ba1c	0.07359716
106	0xbd854b2c	-0.065084785
107	0x3d46f1a0	0.048570275
108	0x3bc47a70	0.005996041
109	0x3d5e8a04	0.05433084
110	0x3d85a509	0.065256186
111	0x3da6feba	0.08154054
112	0x3b4b3a91	0.003101025
113	0xbd83138c	-0.06400213
114	0x3bcda7e1	0.0062761162
115	0x3c020c3c	0.007937487
116	0xbcb3671e	-0.021899756
117	0xbd41b753	-0.047293972
118	0x3d5f33eb	0.054492872
119	0xbd9b52ff	-0.075841896
120	0xbd24bd9a	-0.04021988
121	0x3d16f457	0.036854114
122	0xbc6eee4a	-0.01458318
123	0x3d7fa08f	0.06240898
124	0xbccb4eca	-0.024817843
125	0xbd8061fc	-0.06268689
126	0xbc2bc85e	-0.010484783
127	0xbd47a94e	-0.048745446
128	0xbda644f5	-0.08118621
129	0x3d370ee4	0.044691935
130	0x3d94597d	0.07243631
131	0x3cd03b0b	0.025418779
132	0x3d9ce5c0	0.07661009
133	0xbc128890	-0.008943692
134	0x3d8b3e7c	0.06799027
135	0xbda366f4	-0.07978621
136	0xbda8582e	-0.08219944
137	0x3da7c9cf	0.08192789
138	0xbd47ffec	-0.04882805
139	0xbcc13c26	-0.023588251
140	0x3d7e80f1	0.062134687
141	0xbd673aee	-0.056452684
142	0xbd847832	-0.06468238
143	0xbc2b9914	-0.010473508
144	0x3d527767	0.051383402
145	0x3cb1bfe9	0.021697955
146	0x3daa84d4	0.08326116
147	0xbd9702b1	-0.0737356
148	0xbba325ff	-0.0049788947
149	0x3d77aeb4	0.060469344
150	0x3c4ac9ec	0.0123772435
151	0x3cb9d183	0.02268291
152	0xbd63e84b	-0.055641454
153	0xbc046a8f	-0.008082046
154	0x3da9bcf9	0.08287997
155	0xbae56249	-0.0017500605
156	0xbcc6dc48	-0.02427496
157	0x3d7ffea7	0.062498715
158	0x3d135a46	0.035974763
159	0x3a787b0e	0.0009478786
160	0x3daeff21	0.08544756
161	0x3c1b7d93	0.009490388
162	0xbcb1f7c0	-0.021724582
163	0x3cbe3e26	0.023222994
164	0x3db6f9c9	0.089343615
165	0xbbffd27a	-0.007807073
166	0xbd623ec5	-0.055235643
167	0xbd82a055	-0.06378237
168	0xbd46d91d	-0.0485469
169	0x3d551442	0.052021272
170	0xbc98fe40	-0.018675923
171	0xbda6e9c0	-0.08150053
172	0x3d87502b	0.06607088
173	0x3c84da8c	0.016217493
174	0xbd88e940	-0.06685114
175	0x3ce79f1f	0.028274117
176	0xbd80ec94	-0.06295124
177	0x3c7dc4cd	0.0154888155
178	0xbd15d6c9	-0.03658179
179	0xbc947f4e	-0.01812711
180	0x3d8ab8ed	0.06773553
181	0xbd7bbdbc	-0.06146024
182	0x3cb476fc	0.022029392
183	0x3d19d57e	0.037557118
184	0x3d20e9f3	0.03928561
185	0x3c1799e7	0.009253002
186	0xbd8b578d	-0.06803808
187	0xbd855429	-0.06510193
188	0x3d29cda6	0.041455887
189	0xbd830762	-0.063978925
190	0x3daf82c3	0.08569863
191	0xbc86ea5f	-0.016469179
192	0x3ca68a47	0.020329608
193	0x3b124fde	0.0022325437
194	0x3d9ca8d6	0.076493904
195	0x3c881292	0.016610418
196	0x3d7440d0	0.059632123
197	0xbc0f2ab3	-0.008738208
198	0xbd3c24c0	-0.045933485
199	0xbd22f029	-0.039779816
200	0x3da3a817	0.07991045
201	0x3d6b76a2	0.057486184
202	0x3d876ca5	0.06612519
203	0x3c2d0cba	0.010562116
204	0x3d52693e	0.051369898
205	0x3cbbd205	0.022927294
206	0x3d057d94	0.032590464
207	0xbda15318	-0.07877177
208	0x3c027319	0.007962012
209	0xbd927cf0	-0.07152736
210	0x3c50da2f	0.0127473315
211	0x3d95b83f	0.07310533
212	0xbb3f334f	-0.002917487
213	0xbafab9a3	-0.001912881
214	0x3d51d353	0.051226925
215	0xbc843520	-0.016138613
216	0x3be7342e	0.007055781
217	0xbcfe0baf	-0.03101143
218	0x3d1b3ec7	0.037901666
219	0x3d226fca	0.03965739
220	0x3d72dbbd	0.05929159
221	0xbcbcc5b6	-0.023043495
222	0x3c29416a	0.010330537
223	0x3bd77563	0.006575273
224	0xbc2159c0	-0.009848058
225	0x3c4c8427	0.012482679
226	0x3d568cce	0.052380376
227	0x3d97f0d7	0.074189834
228	0x3d8b8085	0.068116225
229	0x3d92db57	0.07170742
230	0x3dadc466	0.08484726
231	0x3d88d2ac	0.066808075
232	0x3d336c3e	0.0438044
233	0xbcaae0fb	-0.020859232
234	0xbd92401b	-0.071411334
235	0x3c7d1572	0.0154470075
236	0xbb208c97	-0.002449786
237	0xbd5a4159	-0.053284977
238	0xbcd1bf9f	-0.025604067
239	0xbdaf3609	-0.08555228
240	0xbad8ef31	-0.0016550777
241	0xbd12a1bd	-0.035798777
242	0xbd2232c7	-0.039599206
243	0xba86171a	-0.0010230273
244	0xbdb7cd62	-0.089747205
245	0x3cfaadb8	0.030600414
246	0xbdb1de8e	-0.08685027
247	0xbd8514f2	-0.064981356
248	0x3da344e7	0.079721265
249	0xbcc7d4d9	-0.024393486
250	0x3cf1f4cc	0.029535674
251	0x3d5c46a9	0.053778324
252	0xbbee4981	-0.007271946
253	0x3d8f141e	0.06986259
254	0x3cab4722	0.020907942
255	0x3cc468ac	0.023975693

linear3.bias f4 [10]
0	0x3dae505f	0.08511423
1	0xbd87dd6b	-0.06634029
2	0xbcef1036	-0.029182535
3	0xbd2a2b4c	-0.041545197
4	0x3d855106	0.065095946
5	0xbd5f6928	-0.054543644
6	0xbbde425b	-0.0067828125
7	0xbd94eae7	-0.072713666
8	0x3c40c92c	0.011766713
9	0xbd496195	-0.049165327
