DigitClassifier_App/model_ckpt/model_MNISTDigits_SimpleNeuralNet_97.pt (torch, 11497 bytes, 4 tensors)

linear1.weight f4 [32, 64]
000000 fc 9f 20 3d b1 61 96 bd 73 3b 62 3d e0 51 a2 bd
       0.039215073 -0.07342852 0.055232476 -0.07925773
000010 4e b3 24 bd ff f2 af bd 49 2c cf 3d bb d9 b0 3d
       -0.04021006 -0.0859127 0.101158686 0.08635279
000020 42 d9 89 3d 7f dc 84 3d fd 61 2e bd 5a d0 b1 3d
       0.06730892 0.06487369 -0.042573918 0.08682318
000030 2d 81 b3 bd cb b4 50 3d 10 4b 3e 3d d3 34 f7 bd
       -0.08764873 0.050953668 0.046458304 -0.12070622
000040 b6 fb a7 3d e3 2a e9 bd fa 24 55 bb f0 94 e6 bd
       0.08202307 -0.11385133 -0.003252326 -0.11258876
000050 bf d4 67 bc c3 08 ad 3d ca 8d d3 bd 18 a0 fd bc
       -0.014149844 0.08448937 -0.103297785 -0.030960128
000060 c0 75 a2 3d ff 11 87 3d 75 f1 57 3d 45 45 58 3d
       0.07932615 0.06595229 0.052720506 0.052800436
000070 6f 9f d6 bc 4d 6c 15 3d 71 7c d4 bd 9c 66 06 3d
       -0.02619907 0.036480237 -0.10375298 0.0328127
000080 8a d0 d8 3d 37 77 b2 bd 24 b0 db 3d 6d 5d fc bd
       0.10586651 -0.08714145 0.107269555 -0.12322507
000090 f8 e3 77 3c 18 71 b6 3c 74 38 ce 3b 08 e9 a9 3c
       0.015130036 0.022270724 0.006293351 0.020741
0000a0 e6 02 bd bd f1 be 6d bd 7c f4 d7 bc b5 73 93 3d
       -0.092290685 -0.058043424 -0.026361696 0.07199804
0000b0 fb 44 c7 bd 2f d1 46 3d af 49 e6 3d 3e a3 65 3c
       -0.09729954 0.048539337 0.11244523 0.014015971
0000c0 24 50 b8 bd 5d a7 8e 3d 07 3e 87 bd d4 ae f5 bd
       -0.089996606 0.06965516 -0.06603628 -0.119962364
0000d0 cb 6a fe bd 9a 08 86 bd d1 4d 1c bd f1 a0 c4 3d
       -0.12422713 -0.06544609 -0.03816015 0.0960101
0000e0 a8 77 a4 3d 7b 8e 84 3d 36 5c 4e bd e0 eb c7 3b
       0.08030635 0.064724885 -0.050380908 0.0061011165
0000f0 6c 21 5e 3c 0c 9d 3c bc 17 30 93 3d a8 ee 96 3d
       0.013557773 -0.011512052 0.07186907 0.07369739
000100 04 37 3d 3d 73 63 a0 bb 16 8a e2 3c 64 46 05 3b
       0.046195045 -0.004894668 0.027653735 0.0020336146
000110 2a 29 8c 3d bd 2b e2 bd 3c 83 9e bd b4 9a b9 bd
       0.06843789 -0.11043499 -0.07739875 -0.090627104
000120 78 be 8e 3d 85 51 c8 bd 55 a3 ef bd 71 89 29 bd
       0.06969923 -0.097811736 -0.11701075 -0.04139084
000130 7c 66 c3 bd b2 8c 56 3d 15 85 82 bd 17 0c 54 3c
       -0.09541032 0.05238027 -0.0637304 0.012942336
000140 40 42 0a bd 8a 96 f6 bd 6f a7 c7 3d 47 61 d6 bd
       -0.033754587 -0.12040432 0.09748732 -0.10467773
000150 89 b4 08 bd ee c9 e7 bc 5c d2 0e 3c e5 78 f4 3d
       -0.033375297 -0.02829453 0.008717146 0.11937121
000160 48 cf 37 bd c4 46 94 bd 5a 50 9f 3d d2 3f cd bd
       -0.044875413 -0.0724006 0.07778998 -0.100219384
000170 d8 21 a7 3d 0d 13 f1 bd 91 72 ad 3c 38 06 84 3d
       0.08160752 -0.11771212 0.021172794 0.06446499
000180 fa ba 87 bd c7 a1 7c 3d fd 2f 95 bd cd c4 81 3d
       -0.0662746 0.06167772 -0.07284544 0.06336365
000190 f1 b2 86 bd cf 25 d0 3d 43 80 dc 3d ba 78 99 bd
       -0.06577099 0.101634614 0.107666515 -0.0749373
0001a0 06 e4 e1 3d d0 5d b8 bd 36 6a 4d bd 35 17 88 3d
       0.1102982 -0.09002268 -0.05015012 0.066450514
0001b0 d6 c8 24 bd 22 8c 91 bc 85 ed ae 3d f6 3e 5f 3c
       -0.040230595 -0.017767016 0.08541397 0.013625851
0001c0 22 5a 9b 3d bd fd d4 3d 61 cf 34 bd e0 f7 0c bd
       0.07585551 0.10399959 -0.044143084 -0.03441608
0001d0 e8 fd f5 3a 4d 7d da 3d 09 4a 80 3d 5e 7e c2 bd
       0.0018767687 0.106684305 0.06264121 -0.09496759
0001e0 9a c4 ba 3d 01 4a 59 bb 37 45 bd bc 52 65 8f bd
       0.0911953 -0.0033155682 -0.023104293 -0.07001747
0001f0 9d e3 a0 bd b5 96 94 bd ba d0 9a 3c a0 04 d0 3d
       -0.07855914 -0.072553076 0.018898357 0.10157132
000200 c8 7b bd 3d 09 35 b8 3c fa 04 9c 3d 6f 42 10 bd
       0.09252125 0.022486227 0.07618137 -0.035219606
000210 4c 0a ff 3d 3d 65 ba bd 66 33 be bc f8 e9 b5 bd
       0.12453136 -0.09101341 -0.023217868 -0.088825166
000220 ce 86 8d 3d 96 7b 8d 3d cb eb 3d bd 7e 8e 90 bc
       0.069104776 0.06908338 -0.046367448 -0.01764607
000230 80 c8 76 bc c7 ef ec 3d 87 d6 f6 3d 4b e6 ef bc
       -0.015062451 0.115691714 0.120526366 -0.029284617
000240 9c e1 d6 bd e7 e6 ca 3d b8 d7 87 bc 33 8e fa bd
       -0.1049225 0.099073224 -0.016582355 -0.122341536
000250 55 11 4f 3d 55 e4 50 bc 94 2f 18 3d 08 93 c8 bd
       0.05055364 -0.012749751 0.03715475 -0.09793669
000260 cc 93 7d bd f3 e5 7b 3d b3 96 fb bd 2e a2 7d 3d
       -0.06190853 0.061498594 -0.12284603 0.061922245
000270 2d b5 ae 3d 57 d5 a4 bd ab 4c 27 3d 8e d5 81 bd
       0.0853065 -0.08048504 0.0408446 -0.063395604
000280 c8 af 3c 3d 1a d8 58 3d 43 87 20 bd 19 16 b5 bd
       0.046066076 0.052940466 -0.039191496 -0.088421054
000290 3f f4 c1 3c 98 e5 62 bb bf 01 15 3a ac 72 d3 bd
       0.023676036 -0.0034621712 0.0005684159 -0.10324606
0002a0 34 33 61 3d e3 70 01 bc 8f fd 41 bd d7 e2 8b bd
       0.05498047 -0.007900449 -0.047360953 -0.06830376
0002b0 a0 eb eb bc dd a7 92 3d 2d 11 9f bd b0 53 0b 3c
       -0.028798878 0.07160924 -0.07766948 0.008503839
0002c0 40 67 89 3b b2 21 b3 3c 35 83 8e bd 02 e2 b9 bd
       0.0041932166 0.021866653 -0.069586195 -0.09076311
0002d0 e1 9d c8 bd 64 1b bb 3d 14 19 c2 bc af 60 a2 bd
       -0.09795738 0.09136084 -0.023693599 -0.07928597
0002e0 bc 26 f1 bd 00 ec 8e bd cc 24 c3 3d 72 11 99 bd
       -0.11774966 -0.06978607 0.09528503 -0.074740306
0002f0 ae 1f 9a 3d 68 9d ee bc d7 bb d9 bd f6 97 ba bd
       0.07525574 -0.029127792 -0.10631531 -0.091110155
000300 22 b8 ed 3d f9 a8 9e bd 40 b8 a1 bd da 9c 21 bc
       0.11607386 -0.07747073 -0.07896471 -0.0098640565
000310 47 d7 b8 bc cb eb 41 3d 08 ce b4 bc 99 7f 84 bd
       -0.02256359 0.04734401 -0.0220709 -0.0646965
000320 7d 79 b7 3d 46 2c 20 bd ea 72 b9 bb f2 9c 15 3c
       0.08958719 -0.039104722 -0.005659451 0.009131657
000330 9a b9 8b bd 50 92 c5 bd ed 08 8d 3d 28 9f 20 3d
       -0.0682251 -0.096470475 0.06886468 0.039214283
000340 68 8f 28 bd d7 37 98 bd 9d ee 7e 3d 53 5f f7 bd
       -0.041152388 -0.074325256 0.062239278 -0.120787285
000350 c3 da 74 bb 9a 48 81 3d 7d c0 86 bd 4c ba f0 3c
       -0.0037361837 0.06312676 -0.06579683 0.029385708
000360 7b e3 00 3d ff 66 07 bd 99 1a 19 be 58 3f 4d 3c
       0.031466942 -0.03305721 -0.14951552 0.012527309
000370 b2 c6 02 3e ba 7f 08 3c ef 37 c7 bc 01 c2 1b 3d
       0.12771109 0.008331234 -0.024318663 0.038026813
000380 70 47 e7 bc c0 f8 ca 3c 68 30 03 bd 44 73 a5 bd
       -0.028232306 0.024776816 -0.032028586 -0.08078626
000390 3f a9 8f bd 2e 7d a0 3d b5 bf ce bc 38 c7 72 3d
       -0.07014703 0.07836376 -0.025237897 0.05927202
0003a0 82 6a d3 bc 5e 05 99 bc 70 60 09 3d aa be 1e 3d
       -0.025807623 -0.018679317 0.033539236 0.03875605
0003b0 ba ab 09 3d 5d 8f 07 3e e9 f6 b1 3b 4b 36 92 3d
       0.033611037 0.13238283 0.0054310453 0.07139262
0003c0 a0 7f 1a bd f6 4c 90 bd 2c 89 41 3d 6d e5 aa bc
       -0.03771937 -0.07045929 0.047249958 -0.020861352
0003d0 da 14 fa 3d ae 3d 93 bd 2b f5 ef bd 8e b9 fc 3c
       0.12211008 -0.07189499 -0.11716684 0.030850198
0003e0 14 67 84 3d 7c 2c 82 3c 69 8f 36 3d 08 28 ed 3d
       0.06464973 0.015890352 0.04457036 0.11579901
0003f0 5f d9 d3 3d 80 7f be 3b ad cb 78 3d 3d 76 f9 bd
       0.103441946 0.005813539 0.060741115 -0.12180755

linear1.bias f4 [32]
000000 2c 38 8f bd e7 53 4f 3d 5f 9e bb bd 95 a3 66 3d
       -0.06993136 0.050617125 -0.09161066 0.056308348
000010 60 44 ea 3d 8b 63 31 3d ad 3b 75 bd 12 5f e4 3d
       0.11438823 0.043307822 -0.059871364 0.11150946
000020 2d a1 e1 bc 7b d4 83 3d da 57 c4 bd d6 25 b6 bd
       -0.027542675 0.06437012 -0.09587069 -0.088939354
000030 6e c2 dd 3d bf f6 de 3d 9f 23 4c 3d ba 16 85 bd
       0.108281 0.10886907 0.04983866 -0.064984754
000040 29 33 f0 bd 4d 22 ed bd b5 30 20 ba 38 21 e2 3c
       -0.11728508 -0.11578808 -0.00061107735 0.02760373
000050 02 44 96 3d dd d7 f0 3d b4 47 b1 3d 75 c6 80 bd
       0.0733719 0.11759923 0.086562544 -0.06287853
000060 da 77 4d 3d d7 f1 6f 3d d0 a7 59 bc d9 60 c2 bd
       0.050163127 0.058580246 -0.0132846385 -0.094911285
000070 d7 bf 85 bd 52 25 16 bd 43 d7 2b bd a6 9e a0 bd
       -0.06530731 -0.036656685 -0.041953336 -0.0784276

linear2.weight f4 [10, 32]
000000 f3 d9 ed bd d5 8b 0e be 94 7f 29 3e f6 6d 8e bd
       -0.11613836 -0.13920529 0.16552573 -0.06954567
000010 38 ad da 3d 41 14 e9 bd 70 e1 9c bd d3 c3 63 be
       0.1067757 -0.11380816 -0.07660186 -0.2224267
000020 73 5c a5 bd bc 7e 42 3e 1d f2 81 bd 74 ab 16 3d
       -0.08074274 0.18993658 -0.063450076 0.036784604
000030 6c fc 85 bd e0 9b a8 3d 0a 33 b6 ba 97 09 a5 3d
       -0.06542286 0.08232856 -0.0013900709 0.0805847
000040 a6 13 fc 3c 27 e1 df bd 96 16 a1 3d 17 f7 86 3e
       0.030771088 -0.10931616 0.07865636 0.2636039
000050 92 65 03 bd 68 5c 87 3d 45 8e 33 bd 05 a8 c2 3d
       -0.032079287 0.06609422 -0.04383685 0.095047034
000060 1e 1e 8d 3b ef d1 40 3e e2 54 e8 3d ea 80 58 3c
       0.0043065688 0.18830083 0.11344315 0.013214329
000070 42 79 21 be b7 67 8b 3e ea d6 76 be 68 b8 28 3d
       -0.15768912 0.27227566 -0.2410542 0.04119149
000080 7c 64 87 bc 3c f0 28 3e 08 2b 98 bd 98 ea 2d be
       -0.016527407 0.16497892 -0.074300826 -0.16984022
000090 a6 34 3b be a2 f2 0a be 97 05 86 3d 58 ca 6f 3e
       -0.18281803 -0.1356912 0.06544035 0.23417032
0000a0 73 fe e7 bd 6a 3a 44 bd 0c b6 35 be 9a b5 da 3d
       -0.11327829 -0.04790727 -0.17745227 0.10679169
0000b0 29 f9 93 3d 5e 1a 3d bd c2 9b 3b bd a7 90 47 3e
       0.07225258 -0.046167724 -0.04580284 0.19488774
0000c0 28 c5 df bd 50 e5 56 3e 7e 84 f5 3d 7c 7e 3e be
       -0.109262764 0.20985913 0.119881615 -0.18602937
0000d0 b5 98 11 3e cd f7 d9 bc 82 e4 87 bd d9 01 f2 3d
       0.1421841 -0.026607418 -0.06635381 0.11816759
0000e0 99 57 0c bd 50 25 92 be 72 b5 a8 3d 6e 65 b5 bd
       -0.034263227 -0.28544092 0.08237733 -0.08857237
0000f0 af e2 46 be 9a 02 da bd 95 be 2f be 94 42 25 3e
       -0.1942241 -0.106450275 -0.17162545 0.16138679
000100 83 7d f3 3d b6 a9 f1 3b be 85 97 3d 55 1d 1d 3d
       0.11889174 0.0073749674 0.07398556 0.03835805
000110 1f 57 07 3e ce a5 18 be c4 af 09 3d ea 8f 42 bd
       0.13216828 -0.14907 0.03361489 -0.04750053
000120 54 11 ed bc 9c 47 3f 3d 45 c2 10 3e ab 55 5d bd
       -0.028938927 0.04669915 0.14136608 -0.054036777
000130 ed 68 5f be 60 d1 bf bb d5 37 07 3e 02 4b 2f 3e
       -0.2181737 -0.005853817 0.13204892 0.17118457
000140 b3 3d 23 3e 3b b5 23 3e 09 a2 a9 3d df 8b 84 3d
       0.15941505 0.15987103 0.08282859 0.06471991
000150 08 5b 4f 3e 71 87 58 be 9b 88 7f 3e c0 7a 13 be
       0.2024957 -0.21145417 0.24954455 -0.14402294
000160 4e 39 84 3d 48 01 83 bd 79 50 be bd de 71 5c be
       0.064562425 -0.06396729 -0.09292693 -0.21527812
000170 3a 57 b8 3d 19 bf da bd 6e af f3 3c 42 bc 01 be
       0.09001012 -0.1068098 0.029746737 -0.12669471
000180 a6 a8 1b 3d 1d 5e 33 be f9 0a 3c 3e 8c e9 1a 3e
       0.038002633 -0.1751637 0.1836356 0.15128154
000190 89 83 1f 3e c3 fa db 3c ba a4 06 3e 56 35 07 3e
       0.1557752 0.026852971 0.13148776 0.1320394
0001a0 d2 d5 aa be 31 ee eb bd a8 02 e6 3d 91 95 ee 3a
       -0.33366257 -0.11520041 0.112309754 0.0018202533
0001b0 b0 89 94 3d 38 51 26 3e 27 89 8e 3b 05 9d a4 bc
       0.07252824 0.1624192 0.004349846 -0.020094404
0001c0 15 95 99 3d 0a 3e e4 bc 79 1f 97 bd 59 7d 42 be
       0.07499138 -0.027861614 -0.0737905 -0.18993129
0001d0 ea 0c 9a 3d 4e 13 58 bc 1f 56 2a 3e b6 0f 2c 3e
       0.075219944 -0.013188196 0.16634415 0.16802868
0001e0 7b 92 5d bc d2 40 8f 3e fd ee 24 3e 0e 8c ad 3c
       -0.013523693 0.2797914 0.16106792 0.021184947
0001f0 e4 0e fc bc c3 99 2a bd 41 2b 4e 3e f7 d2 a1 bd
       -0.03076882 -0.041650545 0.20133688 -0.079015665
000200 3a d3 d1 bb f4 fe d4 bc 15 13 05 3e 05 4b 5b 3d
       -0.006403354 -0.026000477 0.1299556 0.05353834
000210 bd 8d 92 3d a2 20 02 3e 81 18 3c 3d d2 9b 51 3e
       0.07155941 0.12707761 0.045921806 0.20469597
000220 a1 e5 0a 3e c4 26 56 bc e4 73 e8 3d a5 35 8a 3e
       0.13564159 -0.013070766 0.113502294 0.26994053
000230 73 6b f5 bd fd 2f ea bd cf 90 7b 3d fa e4 99 bd
       -0.11983385 -0.11434934 0.061417397 -0.07514377
000240 ce 84 2b 3e e0 96 23 3e 83 04 40 3e 53 de 53 3c
       0.1674988 0.15975523 0.18751721 0.012931424
000250 f3 c7 6f be 7d 70 54 3d df 5d b0 bd 93 c7 2f be
       -0.23416118 0.05186509 -0.086116545 -0.17165975
000260 9a bb e4 bd 66 96 1e 3d 17 c4 93 bd cf 4e b8 bb
       -0.11168595 0.03871765 -0.072151355 -0.005624629
000270 8c 08 a6 3c 3e 0d 99 bd 13 85 98 be 53 36 90 3d
       0.020267747 -0.07473229 -0.29789028 0.070416115
000280 22 ed 58 bd 75 73 cd 3b fb c0 01 be 40 40 93 3d
       -0.052960522 0.006269867 -0.12671272 0.07189989
000290 1a da 35 3d 00 ce c4 3d e6 3c a8 3d 5c cf 4f 3e
       0.04439745 0.09609604 0.082147405 0.20293945
0002a0 d8 4b cf 3d cb c2 b6 3d 05 f4 0e bd 55 07 48 bc
       0.10121888 0.089238726 -0.034900684 -0.012208779
0002b0 09 82 f5 3d 66 dc 51 bc 62 b0 6c 3d 7a 5c 8f be
       0.11987693 -0.012808895 0.0577854 -0.28000242
0002c0 4a d6 04 3e 21 dc 70 be ac ea 2b bd be 6c ff bd
       0.1297237 -0.23521473 -0.041971847 -0.12471913
0002d0 09 09 5a 3d 61 8b 66 be 7e 1c b7 3c 36 ba 1f 3d
       0.053231273 -0.22514106 0.022352453 0.038995944
0002e0 55 88 be 3b df 28 0d be 54 df 94 3d c6 0a 34 3e
       0.005814592 -0.13785122 0.07269159 0.17582235
0002f0 4f 58 05 be 87 d5 46 3d 83 46 2b 3e 36 06 44 be
       -0.13021968 0.04854348 0.16726117 -0.19142994
000300 4b 5c 78 bd ac 30 21 be 78 25 e6 3d ac c9 15 be
       -0.060634892 -0.15741223 0.11237615 -0.14627713
000310 5a 98 48 be 29 32 63 3d 9c 1c cc bd d5 85 c1 3d
       -0.19589368 0.05546776 -0.09966394 0.094493546
000320 19 67 7f 3e 56 ca 80 be d4 a4 39 3c 3e 05 1f be
       0.24941672 -0.2515437 0.011330802 -0.15529343
000330 4e 2e 78 3d b8 01 33 3e c8 41 bd 3d 0e b0 97 3c
       0.060591035 0.17481124 0.092410624 0.018516567
000340 cf 46 11 3d 62 46 38 be 80 75 af bd 3a c5 17 3e
       0.03546792 -0.17995599 -0.08567333 0.1482133
000350 2f 48 11 3c 6c b0 f2 3c 94 5d 26 be 2f da c9 bd
       0.008867308 0.02962514 -0.16246635 -0.09856068
000360 5f ab fd bd 84 4a 4d 3e 10 3f 28 be 4f 98 b6 bd
       -0.12386202 0.20047957 -0.16430306 -0.08915769
000370 fb 6a ba 3d 54 ec ee bd 6d 95 af bd 40 c2 1c bd
       0.09102436 -0.1166617 -0.085734226 -0.03827119
000380 ff 01 80 bd 7f 88 58 3c 22 5b a2 3c 7f 3e 9b bd
       -0.06250381 0.013216137 0.019818846 -0.075802796
000390 51 0c 23 3c 14 00 94 3c 77 84 52 3e 8a a0 63 3e
       0.009951667 0.018066444 0.20558344 0.2222921
0003a0 c7 bf 2d be 32 78 9f 3d bc ae 23 be cc 64 3f be
       -0.16967689 0.07786597 -0.15984625 -0.18690795
0003b0 da 5e 55 bd 0b 27 17 be c1 01 13 3e 2c 48 7c bc
       -0.05209241 -0.14760987 0.14356138 -0.0153980665
0003c0 b0 6c 9b bd e6 86 17 3d 4a 09 b2 bb 7f f6 da 3d
       -0.0758909 0.036993884 -0.0054332362 0.10691547
0003d0 26 61 9b be e4 d7 eb 3d 3c 38 10 3e 13 47 3e be
       -0.30347556 0.11515787 0.14083952 -0.185818
0003e0 81 4f 37 be e8 79 02 be 6e a3 86 3d bf 87 7f 3e
       -0.17901422 -0.12741816 0.065741405 0.24954127
0003f0 95 1c 5c bd 9c ee 51 bd 18 66 4c 3e 6a 60 8f 3d
       -0.053738195 -0.051252946 0.1996082 0.070008114

linear2.bias f4 [10]
000000 79 79 7f 3a 51 06 ea 3d b8 a2 8d bd b7 25 f4 3d
       0.0009745579 0.11426986 -0.06915802 0.11921256
000010 e6 98 c8 bd 67 a3 62 bc f6 65 2a be 1f 46 0f be
       -0.09794788 -0.0138329035 -0.16640458 -0.13991593
000020 3c 89 3e 3d f2 b1 82 bd
       0.046517596 -0.063815966
