DigitClassifier_App/model_ckpt/model_MNISTDigits8x8_SimpleNeuralNet_96.pt (torch, 11615 bytes, 4 tensors)

linear1.weight f4 [32, 64]
0.07946822 -0.041743267 -0.026090473 0.062346898 0.022355223 -0.13130982 0.11825546 -0.05735587
-0.12203558 -0.006748867 0.04212278 -0.025467573 0.009111986 0.03165197 0.10416653 -0.017877415
-0.0629827 0.07168908 0.107590824 0.055501677 -0.009694993 -0.0021818215 0.09929706 -0.0030700227
0.10921439 -0.11606964 -0.05783147 -0.0034457145 0.19366448 0.1742173 0.15820406 0.119985916
-0.104956016 0.096237764 -0.077959 0.059198238 0.03699392 0.09149863 -0.048599903 0.08478083
0.085244745 -0.07111237 0.015560602 -0.07616882 -0.03813123 -0.03542525 0.14239171 0.069617406
0.008667811 0.010731107 -0.010943525 -0.09809745 -0.19537538 -0.05949513 -0.023955338 -0.025716083
0.038018838 -0.058305778 0.05412347 -0.057289615 0.033187408 -0.08038811 0.048114974 -0.103016846
0.110791 0.07045056 -0.087140046 -0.13644522 0.1733941 -0.10389206 -0.075781375 0.044589575
-0.06324916 0.12126854 -0.080053434 0.040640872 0.030689571 0.04972861 0.027936922 0.042786237
0.09267942 0.10169261 -0.08984311 -0.055220783 -0.16573012 -0.0478194 0.09125304 0.06050042
0.119956784 -0.052069828 0.06747718 -0.0570033 0.056032784 -0.15987173 -0.08249052 0.10708422
0.058467656 0.021765595 -0.119294 0.07028361 0.15895645 0.04429655 0.031616677 0.04099992
-0.043668143 -0.014642877 0.04408243 0.15055433 -0.09335301 0.08932313 0.041820224 -0.08935685
-0.008756375 -0.116789944 -0.0045479415 0.11005692 -0.07248901 0.1143434 0.15208638 -0.13213623
0.07678331 -0.045073293 -0.08563702 -0.061315417 0.00922615 0.05382006 0.054664157 -0.11385262
0.017169535 -0.115845755 -0.06743091 -0.04917343 0.08228116 -0.00021618772 0.064189844 -0.022659292
0.011819779 0.038818914 0.06450718 -0.123980455 -0.09550853 0.07382945 0.0043418077 -0.023944573
0.08167741 -0.0681475 0.04250553 0.0132739805 -0.12765998 -0.049412847 0.10685437 -0.0053203977
-0.08473866 -0.085474856 -0.118680984 0.041383825 0.07848966 -0.017557072 0.096030906 0.10709086
-0.11297245 -0.11412407 0.035172917 -0.056630503 -0.032932974 0.031150395 -0.09181921 -0.072362885
0.04227475 0.10644439 0.06189776 0.015876353 0.05249459 0.008991244 -0.07794442 0.050005317
0.08204642 -0.090349026 0.13267301 0.0070878863 -0.013562018 0.12246397 -0.010242901 0.047278296
-0.06322971 -0.11018271 -0.01776776 0.17424688 -0.009768768 -0.09817123 0.015783004 -0.120805934
0.06281915 0.097464785 0.14794545 0.14747661 -0.037110485 -0.10576973 -0.06022553 -0.05101447
-0.097577535 0.08731399 0.14888878 0.013594805 0.180691 0.075995855 0.04413444 -0.059230622
0.107968725 0.049965713 -0.023426447 0.11085197 0.05646096 0.17043614 0.05979336 -0.06806659
0.06534187 -0.080538444 -0.1010917 -0.18610711 -0.113445915 0.014513609 0.11735048 0.001992482
0.118554994 -0.09119505 -0.14036576 0.013561354 0.013307079 -0.053934544 0.021910222 -0.041290462
0.023903456 -0.013331743 0.12226335 0.13880324 0.03056244 -0.19675754 -0.06620051 -0.112127736
0.081675895 0.043682355 0.16550888 0.17646606 0.0011941707 -0.035293013 0.06103929 -0.009021699
0.045625273 -0.071027875 -0.07744744 0.14486834 -0.001576126 -0.088337 0.014972507 0.111190796
00000000: 3cc0 a23d fdfa 2abd b0bb d5bc 765f 7f3d
00000010: 4d22 b73c 1576 06be eb2f f23d fded 6abd
00000020: caed f9bd 9a25 ddbb f088 2c3d 5fa1 d0bc
00000030: 704a 153c 7fa5 013d 4355 d53d a873 92bc
00000040: 13fd 80bd b9d1 923d 9458 dc3d ba55 633d
00000050: bfd7 1ebc e4fc 0ebb 425c cb3d 6f32 49bb
00000060: cbab df3d ebb5 edbd b1e0 6cbd 7fd1 61bb
00000070: fb4f 463e 0566 323e 3f00 223e 2dbb f53d
00000080: 2ef3 d6bd 4e18 c53d f8a8 9fbd da79 723d
00000090: f086 173d a263 bb3d b110 47bd 92a1 ad3d
000000a0: cc94 ae3d 5da3 91bd e5f1 7e3c 66fe 9bbd
000000b0: 7e2f 1cbd 111a 11bd 22cf 113e 9293 8e3d
000000c0: 6f03 0e3c 86d1 2f3c 784c 33bc 51e7 c8bd
000000d0: 7c10 48be 2ab1 73bd fc3d c4bc 89aa d2bc
000000e0: a4b9 1b3d 0ad2 6ebd 92b0 5d3d 84a8 6abd
000000f0: 85ef 073d 85a2 a4bd 3514 453d 7ffa d2bd
00000100: 64e6 e23d 6248 903d 7b76 b2bd 4cb8 0bbe
00000110: 398e 313e 5cc5 d4bd 4433 9bbd 8fa3 363d
00000120: c788 81bd a45b f83d 0ef3 a3bd 0b77 263d
00000130: b268 fb3c 3ab0 4b3d f9db e43c 9f40 2f3d
00000140: b5ce bd3d 3744 d03d aaff b7bd 302f 62bd
00000150: 28b5 29be 46de 43bd e0e2 ba3d 4acf 773d
00000160: e7ab f53d 2c47 55bd 7a31 8a3d 4b7c 69bd
00000170: a282 653d 6ab5 23be caf0 a8bd f94e db3d
00000180: c87b 6f3d c34d b23c 6a50 f4bd daf0 8f3d
00000190: 7bc5 223e 4d70 353d 7d80 013d 88ef 273d
000001a0: 5edd 32bd ade8 6fbc c78f 343d ea2a 1a3e
000001b0: dd2f bfbd 0cef b63d af4b 2b3d b900 b7bd
000001c0: e676 0fbc 912f efbd e606 95bb 8665 e13d
000001d0: 1e75 94bd df2c ea3d 88bc 1b3e b84e 07be
000001e0: 9140 9d3d c69e 38bd 7662 afbd e025 7bbd
000001f0: 4729 173c 6c72 5c3d 86e7 5f3d 902b e9bd
00000200: 20a7 8c3c 8a40 edbd 3819 8abd 146a 49bd
00000210: 0683 a83d 73b0 62b9 f775 833d fb9f b9bc
00000220: bfa7 413c 9500 1f3d 571c 843d 77e9 fdbd
00000230: fa99 c3bd e533 973d b945 8e3b 6927 c4bc
00000240: 7c46 a73d eb90 8bbd 471a 2e3d 1c7b 593c
00000250: 4cb9 02be 2065 4abd 77d6 da3d bb56 aebb
00000260: 768b adbd 710d afbd 040f f3bd 1682 293d
00000270: 30bf a03d d9d3 8fbc daab c43d 7452 db3d
00000280: 1a5e e7bd e1b9 e9bd 7a11 103d 63f5 67bd
00000290: bae4 06bd 1d2f ff3c b60b bcbd fe32 94bd
000002a0: 4a28 2d3d 84ff d93d 8188 7d3d 200f 823c
000002b0: 9104 573d 0350 133c 53a1 9fbd 60d2 4c3d
000002c0: f407 a83d e908 b9bd 6fdb 073e 8041 e83b
000002d0: 3a33 5ebc 64ce fa3d d7d1 27bc e3a6 413d
000002e0: 947e 81bd 79a7 e1bd b28d 91bc c66d 323e
000002f0: 2f0d 20bc ff0d c9bd 5c4b 813c 1a69 f7bd
00000300: 54a7 803d 9e9b c73d 037f 173e 1c04 173e
00000310: 2a01 18bd cd9d d8bd 0caf 76bd 8df4 50bd
00000320: bbd6 c7bd add1 b23d 4d76 183e bfbc 5e3c
00000330: 1007 393e b7a3 9b3d 51c6 343d cf9b 72bd
00000340: b51e dd3d d9a8 4c3d d2e8 bfbc 5c06 e33d
00000350: 9c43 673d d086 2e3e e2e9 743d 7f66 8bbd
00000360: f5d1 853d 57f1 a4bd 2a09 cfbd dd92 3ebe
00000370: 5556 e8bd 7dca 6d3c 7355 f03d 4d94 023b
00000380: f6cc f23d 78c4 babd 0bbc 0fbe 7130 5e3c
00000390: ef05 5a3c 78ea 5cbd 117d b33c 3020 29bd
000003a0: 2ed1 c33c 626d 5abc 3565 fa3d 7022 0e3e
000003b0: 155e fa3c cf7a 49be 2294 87bd 3aa3 e5bd
000003c0: b145 a73d 45ec 323d 297b 293e 85b3 343e
000003d0: b885 9c3a 688f 10bd 5604 7a3d c0cf 13bc
000003e0: 91e1 3a3d 1077 91bd c39c 9ebd 5e58 143e
000003f0: 0396 ceba 07ea b4bd 3f4f 753c 00b8 e33d

linear1.bias f4 [32]
-0.06366582 0.0050981985 0.107978754 -0.10052372 -0.060407374 0.059237488 0.09809649 0.010135678
-0.114564404 0.11544897 0.056351338 0.11629292 0.0066286237 0.06769375 0.0021307243 -0.054256003
-0.11620554 -0.037555564 -0.027948303 0.061197206 0.11054185 0.09244759 0.03997314 -0.106574066
-0.029713733 -0.06426019 0.042492766 0.054337125 0.06881805 0.08023842 0.1315913 0.046165597
00000000: 3a63 82bd ca0e a73b f723 dd3d 61df cdbd
00000010: b96d 77bd 02a3 723d d0e6 c83d 1d10 263c
00000020: bea0 eabd 8270 ec3d a9d0 663d fc2a ee3d
00000030: ed34 d93b 05a3 8a3d 9fa3 0b3b 8b3b 5ebd
00000040: 2cfd edbd ddd3 19bd d7f3 e4bc eca9 7a3d
00000050: c463 e23d 2955 bd3d e0ba 233d 8143 dabd
00000060: 376a f3bc d99a 83bd e50c 2e3d 9b90 5e3d
00000070: 7af0 8c3d 0a54 a43d dfbf 063e 2318 3d3d

linear2.weight f4 [10, 32]
-0.1781924 -0.16627862 0.0037046985 0.09650099 -0.17986655 -0.11864792 -0.046800647 0.12963744
-0.15817137 0.0017148876 -0.08658755 -0.0317422 -0.26233128 -0.32397866 -0.08374689 -0.063889064
0.07671212 -0.22765145 0.137939 0.036985487 -0.14707994 -0.22152841 -0.021452889 -0.054954242
-0.091699794 0.01293213 0.3646581 0.2603449 0.053050715 -0.07800562 -0.007930329 0.068226375
-0.14139162 -0.32018593 -0.10618951 -0.09962408 -0.04445115 0.048444707 0.24562335 0.08764558
0.11508613 0.30848625 0.049534634 -0.06278742 0.13415055 0.2378863 -0.259452 0.076277
-0.15890516 0.17362477 0.10989337 -0.07882346 0.013105064 -0.24515675 0.040889263 0.21119899
-0.14029667 0.07440588 -0.26742828 -0.1838216 -0.11663616 0.15606675 -0.26604518 0.28379297
-0.16657619 0.11234394 0.010544987 0.32849494 -0.1732162 0.024667237 -0.20097603 0.062178474
-0.17338927 -0.0057957694 0.17554362 0.09708783 -0.15465826 0.07400368 0.12497062 0.14956291
-0.16613595 0.17850125 0.14814909 0.13485847 -0.23490952 -0.071551 0.15579586 0.10355928
0.065530226 0.15478556 -0.33841148 0.034798097 0.1779741 -0.11093245 -0.26140112 -0.19086511
-0.014099529 0.094951846 -0.06417568 -0.22882678 0.20527646 -0.1503603 -0.13356303 0.076892175
0.20018457 -0.18124543 0.11369265 0.13384269 0.049714502 -0.20542057 0.2509506 0.17319754
0.13973676 0.17215486 -0.2326789 0.033871166 0.36018178 -0.0893317 -0.114165545 0.14654216
0.0186051 -0.14691196 -0.1574914 0.07345049 0.1876975 -0.0101999575 -0.025301268 -0.20588379
0.026953245 -0.10523639 -0.02994982 -0.16738072 -0.09298946 0.09580287 0.5140557 0.10845114
0.1666451 -0.12645915 0.24784262 0.11558356 -0.08983251 0.071990095 -0.26839787 -0.028891709
-0.0055442876 -0.008088661 -0.03217902 -0.07893528 -0.07808136 0.21463533 0.06581414 -0.14092873
0.011501419 -0.08219764 0.11652828 -0.38923958 0.13893482 0.009384029 0.16799575 -0.03846797
-0.048391126 -0.10999259 -0.17675628 -0.12818399 0.20658165 0.0022671383 -0.057853017 -0.05900236
-0.08197303 -0.09577127 -0.17375952 0.002595277 0.22639397 -0.292653 0.06717403 -0.118095
-0.17369509 -0.478066 0.35071707 -0.12863903 0.09156388 0.16774935 -0.030868188 -0.10125012
0.10809791 -0.05506049 -0.19158444 0.10738652 0.009025421 -0.10858754 0.056192793 -0.05371861
0.101483226 0.17824471 -0.024073975 -0.23083283 0.069828816 0.112326264 -0.13791184 0.015033195
-0.1543257 0.11230407 -0.18133767 -0.16619591 -0.24685876 0.046165634 -0.30788094 -0.11783329
-0.05913064 -0.21705371 0.02760332 0.17339145 -0.0247108 -0.13442083 0.019533902 -0.07395949
-0.10671141 0.09049427 -0.15196624 0.077082194 0.2402622 0.1341181 0.23634061 0.34878537
0.15028872 -0.070545904 -0.082463495 0.017243538 -0.021576678 0.06811953 0.40607688 0.036334682
0.15416832 0.15904956 0.044555336 -0.05715359 -0.25810295 0.041251555 0.3479421 0.15042512
-0.0378139 -0.110793784 0.022078153 0.1584903 0.3562713 -0.18754308 -0.0639873 0.11231998
0.026771475 -0.04913738 -0.0653797 -0.29794496 -0.18559419 -0.12660035 0.02389535 -0.09688298
00000000: 1278 36be f144 2abe 87ca 723b 50a2 c53d
00000010: f02e 38be aefd f2bd 09b2 3fbd adbf 043e
00000020: adf7 21be 14c6 e03a d054 b1bd 1c04 02bd
00000030: 4950 86be 88e0 a5be 7d83 abbd 45d8 82bd
00000040: 3e1b 9d3d 761d 69be e23f 0d3e 187e 173d
00000050: 209c 16be 58d8 62be f8bd afbc b317 61bd
00000060: 1acd bbbd 49e1 533c 77b4 ba3e ed4b 853e
00000070: b54b 593d 69c1 9fbd 36ee 01bc 45ba 8b3d
00000080: f7c8 10be 69ef a3be e379 d9bd b607 ccbd
00000090: 6912 36bd f56d 463d b084 7b3e 877f b33d
000000a0: 47b2 eb3d e9f1 9d3e d4e4 4a3d b196 80bd
000000b0: c35e 093e 7798 733e e4d6 84be 1e37 9c3d
000000c0: 09b8 22be b1ca 313e c60f e13d 326e a1bd
000000d0: 9fb6 563c 5f0a 7bbe 807b 273d 8c44 583e
000000e0: eea9 0fbe 1c62 983d 5cec 88be bb3b 3cbe
000000f0: f0de eebd f6cf 1f3e 1337 88be 504d 913e
00000100: f392 2abe 9414 e63d e2c4 2c3c 7d30 a83e
00000110: 965f 31be f212 ca3c a9cc 4dbe dbae 7e3d
00000120: f58c 31be 70ea bdbb b5c1 333e fcd5 c63d
00000130: bc5e 1ebe 3e8f 973d 99f0 ff3d 0527 193e
00000140: 8b1f 2abe 08c9 363e 65b4 173e 5718 0a3e
00000150: 1f8c 70be 5589 92bd f388 1f3e e316 d43d
00000160: b634 863d 1b80 1e3e 4544 adbe 7388 0e3d
00000170: d83e 363e 8d30 e3bd 5ed6 85be 2572 43be
00000180: b601 67bc 1d76 c23d 8a6e 83bd 9151 6abe
00000190: fe33 523e 0df8 19be bfc4 08be a579 9d3d
000001a0: 2ffd 4c3e 6798 39be b1d7 e83d 0f0e 093e
000001b0: 6fa1 4b3d c559 52be 997c 803e b25a 313e
000001c0: 2717 0f3e 5d49 303e 6143 6ebe 7ebc 0a3d
000001d0: bf69 b83e 8af3 b6bd a0cf e9bd 260f 163e
000001e0: b969 983c 1770 16be 6d45 21be 366d 963d
000001f0: c633 403e b91d 27bc 9b44 cfbc 33d3 52be
00000200: 0dcd dc3c 2d86 d7bd 5359 f5bc da65 2bbe
00000210: 4271 bebd 4c34 c43d 2899 033f a21b de3d
00000220: 03a5 2a3e 827e 01be 75ca 7d3e 13b7 ec3d
00000230: 1bfa b7bd 8b6f 933d 726b 89be 4eae ecbc
00000240: dbac b5bb 4e86 04bc 26ce 03bd d2a8 a1bd
00000250: 1fe9 9fbd 5dc9 5b3e 90c9 863d 9f4f 10be
00000260: 7370 3c3c 3c57 a8bd 61a6 ee3d 694a c7be
00000270: ee44 0e3e 78bf 193c 1407 2c3e 9790 1dbd
00000280: c635 46bd cc43 e1bd 99ff 34be aa42 03be
00000290: 248a 533e 4594 143b 49f7 6cbd 75ac 71bd
000002a0: 7ae1 a7bd ba23 c4bd 04ee 31be 8615 2a3b
000002b0: d2d3 673e 9dd6 95be 8a92 893d cbdb f1bd
000002c0: 20dd 31be 11c5 f4be 3091 b33e f3b9 03be
000002d0: d885 bb3d 7cc6 2b3e 48df fcbc 395c cfbd
000002e0: 7062 dd3d 1c87 61bd b62e 44be 77ed db3d
000002f0: 5cdf 133c 2563 debd 6a2a 663d 0c08 5cbd
00000300: 70d6 cf3d c885 363e c936 c5bc 715f 6cbe
00000310: 6902 8f3d 500b e63d c338 0dbe ca4d 763c
00000320: 8e07 1ebe adff e53d 95b0 39be 432f 2abe
00000330: 8bc8 7cbe 2d18 3d3d 92a2 9dbe 9452 f1bd
00000340: f832 72bd 5443 5ebe 5c20 e23c 878d 313e
00000350: 4e6e cabc 9da5 09be 9005 a03c 1378 97bd
00000360: 838b dabd 0f55 b93d 0a9d 1bbe 45dd 9d3d
00000370: 4b07 763e 4156 093e 4603 723e ff93 b23e
00000380: 49e5 193e 5f7a 90bd 9fe2 a8bd 5242 8d3c
00000390: 93c1 b0bc 4182 8b3d 4fe9 cf3e add3 143d
000003a0: 4dde 1d3e e3dd 223e a87f 363d e219 6abd
000003b0: 1226 84be 64f7 283d 7825 b23e 0b09 1a3e
000003c0: bfe2 1abd dae7 e2bd 3edd b43c 484b 223e
000003d0: 3169 b63e 4b0b 40be c60b 83bd 0508 e63d
000003e0: da4f db3c 4744 49bd cbe5 85bd 3e8c 98be
000003f0: 670c 3ebe 86a3 01be 2ec0 c33c 956a c6bd

linear2.bias f4 [10]
0.059485637 -0.18090795 0.024577849 0.0040622926 0.037389744 -0.15327464 0.15442172 -0.10099107
0.10557227 0.16852728
00000000: 36a7 733d ef3f 39be 7c57 c93c fb1c 853b
00000010: fd25 193d 07f4 1cbe ba20 1e3e 68d4 cebd
00000020: 4636 d83d 6a92 2c3e
