DigitClassifier_App/model_ckpt/model_MNISTDigits28x28_DoubleLayerNeuralNet_97.pt (torch, 475855 bytes, 6 tensors)

linear1.weight f4 [128, 784]
00000000: 949e e3bb 54e2 d0bb 301a ec3b 008d 84b9
00000010: 104e 803b 7cd7 80bc d8b5 69bc eb40 02bd
00000020: 9eb9 aabc 57cf 81bc 17c3 113d c093 d13c
00000030: aead 87bc 3206 e43c 285a 493c 90f4 083c
00000040: 4baf 09bd e0d3 b63a c7a2 0d3d d408 94bb
00000050: 9caf d5bb d025 773c b072 693b f32e 013d
00000060: 06fa 16bc 8a67 4ebc ba9d 10bd 90b6 08bb
00000070: 2c01 db3c 3f80 023d 034a 8cbc 2488 353c
00000080: b8bf ce3b 02ab a93c 910e 10bd 2e4d a7bc
00000090: 6cdc 88bc 9ccf fa3c 68eb 9c3c c007 8d3a
000000a0: 4561 fbbc 99f9 e63c 2bdb 72bc 9c43 c9bc
000000b0: 1c0b 253b 2d7e cfbb 4f6e 83bc 610c 0ebd
000000c0: e0a0 503c 4d5f c2bb 6a10 5abc cea6 833c
000000d0: c377 0abd d843 bf3c 16c4 b33c 2015 0e3c
000000e0: d314 fcbc 435a cbbc 202f b0ba f80c 143c
000000f0: 00bc 8fbc e926 9b3b 2b45 5c3c 9e9e 5d3c
00000100: 3ba8 a4bb d554 a43c 2b4b ddbb 838e 08bd
00000110: d7f7 013d 8f0f 4abc 52bf c4bc 9817 093d
00000120: 876d 113d 729e 69bc 01da 0fbb e701 22ba
00000130: 2780 8bbc b070 a13c a7a1 f9b9 94b6 ddbc
00000140: c417 573c e08d 533b d2c1 0ebc c29b fe3c
00000150: 2e83 99bc 8072 f83b 9c6b 753c 185c 0dbc
00000160: 3ff9 f3bc ef6e 66bc 052d f5bb 35ac 5e3c
00000170: 571d b23b 713a df3c 2ef6 e3bc bde5 e8bb
00000180: 92ad 38bc 1db6 86bc 1086 b93b bfac 05bc
00000190: 3d19 8db9 16fe 413b 3986 ef3c 2268 963c
000001a0: e2ca cebb f996 da3b cf05 d23c 41f4 033d
000001b0: 1af3 483c e4a9 6b3c 54ed 353c 60e0 bfbc
000001c0: 83ab 063d 4250 fc3c f86e 96bb 6a32 efbc
000001d0: 951e 58bc 8664 d43b 7502 ea3c 4854 333c
000001e0: 2a7c 853b a823 0fbd b2e0 80bc 0a1f 64bc
000001f0: 79aa 7abc e287 bcbb 639c 083d ee90 babc
00000200: 08ae 10bd d98e 62bc 6a07 4c3c f27d c5bc
00000210: d2a5 ea3c 50f5 eabb 1a6d a4bc 3a7b ccbc
00000220: bfba a4bc 6196 d73c 17d8 05bd b2ab 06bd
00000230: c0be b9bc dfe9 083d 335e f73c a5d0 a03c
00000240: 6e26 563b 14bf 0d3d 5016 b0bc f7e4 afbc
00000250: 4a8a b73c c69a 9ebc ffb7 4abc ec76 353c
00000260: 7ea9 e83c d5bb a73b 0beb 8ebc 6f10 aa3c
00000270: 1e14 d13c de6f fbbc fceb be3c 3e85 d63b
00000280: 30fe 7cb9 38ac 1b3c cbb0 efbc c65f 403a
00000290: 06e8 79bc 9d71 613a 7ff2 0ebd 1083 113b
000002a0: 712d 123d 1200 2ebc 3a1f 6b3c 64f6 f4bb
000002b0: 3933 0b3c 429b 0fbd bdbe 93bb a350 0dbd
000002c0: b050 693c 55c2 f8bc 42b5 bcbc 6a14 f5ba
000002d0: 597e 4ebc b437 9ebc 16c1 9c3c b285 f73c
000002e0: 5973 4cbc b326 c1bc a11e 06bd 98ad c5bc
000002f0: 890e fdbc cdc8 0d3c a3a6 48bc fd6a 4cbc
00000300: 53cd 99bc 87fe 9abc dfe1 393c 9184 40bc
00000310: c4ed 0abd 9344 0d3d 7945 053d 1cc0 febc
00000320: 96e5 893c 0690 073b 6d12 023d a84c 47bc
00000330: 11f2 e2bc bf0d cd3c e32c bd3c f1af 90b9
00000340: 0c6a afbb b21d b9bb 953c c63b 7074 b7bc
00000350: a8ac 923c 9780 473c b42c cfbc d380 dd3c
00000360: 07c5 bcbc 818c 02bd aacd d2bc 3e13 a43a
00000370: ab37 0c3d 53d9 ed3c 727c ea3c 28e4 aabc
00000380: 8022 c93b b1b4 573c 252e 01bd 7d5c 113d
00000390: 3947 bc3b b49e d7bb 109e 9c3c 8913 df3b
000003a0: 917b b63c 36e6 a9bc 995f 9d3b 670f 30bc
000003b0: d656 17bd 293f dd3c 897d 073d 78f6 c4bb
000003c0: 1d16 a03c ad04 05bd dfbd 6d3c c4b6 033d
000003d0: 13b1 7a3b c8bb d6bb af00 683c a029 28bc
000003e0: 8305 27bc fe48 e23c cc5d c43b 4d29 263c
000003f0: cadd 11bd 7a63 6db9 4ec6 a1bc f19b 7dbc
-0.006946394 -0.0063746367 0.00720527 -0.00025282055 0.003915556 -0.015727751 -0.014264546 -0.03180019
-0.020840462 -0.015845938 0.035586443 0.025583148 -0.01656231 0.027834985 0.012289561 0.0083590895
-0.033614438 0.0013948642 0.034579065 -0.004517654 -0.0065211784 0.015084699 0.0035621338 0.031538915
-0.009214884 -0.012597928 -0.03530667 -0.002086077 0.026733957 0.031860586 -0.017125135 0.011079822
0.0063094757 0.020711426 -0.03517014 -0.020422544 -0.016706668 0.030616574 0.01915522 0.0010759756
-0.03068603 0.02819519 -0.0148227615 -0.024568371 0.0025183624 -0.00633218 -0.01604381 -0.034679774
0.012733668 -0.005931771 -0.0133095775 0.01607075 -0.03380562 0.02334778 0.021944087 0.008672029
-0.030771649 -0.024823314 -0.0013441779 0.009036295 -0.0175457 0.004734863 0.013444225 0.013526587
-0.0050249374 0.020059982 -0.0067533455 -0.033339035 0.0317305 -0.012332811 -0.02401701 0.033469766
0.035504844 -0.014258968 -0.0021950009 -0.0006180093 -0.017028881 0.019707054 -0.0004761342 -0.0270646
0.013128225 0.003228061 -0.008713203 0.03108013 -0.01873931 0.007582009 0.014979269 -0.008627914
-0.029781936 -0.014064535 -0.0074821734 0.013590862 0.0054356265 0.027249547 -0.027827349 -0.007107465
-0.011271851 -0.01644426 0.0056617334 -0.008158862 -0.0002691242 0.002960091 0.029238807 0.018360201
-0.0063108066 0.0066708294 0.025637535 0.03221536 0.012264991 0.014383767 0.011103947 -0.02342242
0.03287841 0.030799989 -0.004590865 -0.029198844 -0.013190885 0.00648171 0.028565625 0.010945387
0.0040736394 -0.034946114 -0.015732143 -0.013923416 -0.015299433 -0.005753503 0.033352267 -0.022774186
-0.03532222 -0.013828003 0.0124529395 -0.024107907 0.028643522 -0.007170357 -0.020071555 -0.024961103
-0.020108579 0.026316823 -0.032676782 -0.032878585 -0.022673965 0.03342616 0.030196285 0.01963074
0.0032676714 0.034606054 -0.021495014 -0.021471484 0.022404809 -0.019360911 -0.01237297 0.0110757165
0.028401133 0.005118827 -0.017446062 0.02075979 0.025522288 -0.03069299 0.023305885 0.0065466454
-0.00024127285 0.009501509 -0.029259106 0.000733849 -0.015253073 0.00085999985 -0.03489923 0.0022203363
0.035687868 -0.010620134 0.014350707 -0.007475661 0.008496099 -0.035060175 -0.0045088218 -0.03450073
0.014240429 -0.030366102 -0.02303565 -0.00186981 -0.012603366 -0.01931367 0.01913504 0.030215118
-0.012478673 -0.023578024 -0.032744054 -0.024130628 -0.03089072 0.008653832 -0.012246761 -0.01247668
-0.018774664 -0.018920196 0.011345356 -0.011750356 -0.033918157 0.034489226 0.032536957 -0.031097464
0.016833108 0.002068521 0.031755853 -0.012164272 -0.027703317 0.025030969 0.023092693 -0.00027596907
-0.005353218 -0.005649292 0.0060497024 -0.022394389 0.017904595 0.012176654 -0.02528987 0.027038967
-0.023043169 -0.031872276 -0.025732834 0.0012517942 0.034232777 0.029034292 0.028623793 -0.020860747
0.006138146 0.013165639 -0.031538147 0.035488594 0.005745795 -0.006580198 0.019118339 0.0068077487
0.022275718 -0.020739656 0.004802656 -0.01074586 -0.036948048 0.027007656 0.033078704 -0.0060108267
0.019541794 -0.032475162 0.014510601 0.03215672 0.0038252517 -0.006553147 0.014160319 -0.01026383
-0.010194185 0.027622696 0.005992627 0.010141683 -0.035611905 -0.00022639139 -0.01974788 -0.015479074

linear1.bias f4 [128]
00000000: c6ca 1c3b a766 11bd 3415 003d 388e b13c
00000010: 01e7 77b9 9c9c 0cbd ebca 11bd cfba c63c
00000020: cd9d cd3c 5a05 a9bb 754b f93c ef50 bebc
00000030: f25f 82bb 06f9 c73c 269c 173c b85e cc3c
00000040: 1fea 08bd 5f86 b3bc f9eb 9d3c 71fc a03a
00000050: 648e 4cbb c72c 5ebc 70e9 b53c 9364 09bd
00000060: ab89 ae3c 170c 9d3b 5029 48bc a219 df3c
00000070: b5ed a1ba b742 a93c dc69 0cbd e94f 1fbc
00000080: 75f7 003d b8cf 8938 5fa0 05bd b1c4 d0bc
00000090: b533 aebc b10a 963c 7e71 113d feea c9bc
000000a0: e133 9bbb e290 fcbc c1df cabb fdbc 4cbc
000000b0: 0ced 3f3c bbb5 1a3c c3b0 0c3d 3483 fa3c
000000c0: 9bd5 09bb f2cc a53c 2223 9b3b debd ea3a
000000d0: 08db 96bc 4d8d a33b b26b 043d 387f c2bc
000000e0: e133 b3bc dd4c 0bbd 94fb cdbb 8bb3 4dbc
000000f0: 08ac 05bd 51bd 393c f4ca 873b def9 413b
00000100: eaf2 c1bc b934 bc3c ded2 d1ba 7f63 f6bc
00000110: d351 24bc e18a debb f5b5 8b3c d6b0 10bc
00000120: 46dd 9fbc 386d f3bb e3d3 a63c cc81 b9bc
00000130: 24f2 79bc c887 8abc cb1d 913c 5994 0dbd
00000140: 2d66 03bd 28a7 dc3c 9ec2 fabc 71aa ccba
00000150: d842 b6bc 2568 bc3c 37ae 1abc 3c7f a3bb
00000160: ec00 87bc e237 e53c 6cc1 b83c e5cf 653c
00000170: b2e4 9d3c 6d1d d2bc 46d9 08bc 330a 06bd
00000180: 1561 dfbc 7c2f ccba 45a9 7dbc 2df7 38bc
00000190: 8011 32bb e1b1 6d3c 75a1 b8bb 87d5 e53c
000001a0: 47e6 a63c b58d 04bc 0ea8 e1bc 3196 debc
000001b0: a31a 06bc a7e3 1bbc 5429 fd3c 2b43 df3c
000001c0: 73c8 e33b 2e28 a93c 08ea 8c3c f156 b5bc
000001d0: 00d9 e23c b86e 8339 f2ae 043d 9a0a c6bc
000001e0: 9107 83bb 7841 eebb 38b0 3c3c 7887 0a3c
000001f0: 6967 623b 1523 a33c cfa7 b43c 6cbc 76bb
0.0023924573 -0.035498288 0.03127022 0.02167426 -0.00023641811 -0.03432904 -0.03559391 0.024259
0.02509966 -0.0051581087 0.030431489 -0.023231952 -0.0039787227 0.024410736 0.009253537 0.02494751
-0.0334264 -0.021914659 0.01927756 0.0012282265 -0.00312128 -0.01356048 0.022206038 -0.03354318
0.02130588 0.004792701 -0.012216881 0.027233902 -0.0012354167 0.020661695 -0.034280643 -0.009723642
0.031485993 6.57136e-05 -0.032623645 -0.025484415 -0.02126489 0.018315645 0.035508625 -0.024648186
-0.004736409 -0.030830804 -0.0061912243 -0.01249623 0.011714231 0.009442742 0.03434826 0.03058014
-0.002103186 0.020239327 0.0047344128 0.0017909368 -0.01841499 0.0049912096 0.03232927 -0.023742303
-0.021875324 -0.03400885 -0.006286094 -0.012555013 -0.032634765 0.01133664 0.004144067 0.0029598395
-0.0236754 0.022974359 -0.0016008278 -0.03007674 -0.010029274 -0.006791458 0.017054537 -0.0088312235
-0.019514691 -0.0074287914 0.020364707 -0.0226449 -0.015255485 -0.016910449 0.017714402 -0.034565303
-0.032079864 0.026935175 -0.030610379 -0.001561476 -0.02224867 0.022998879 -0.00944095 -0.0049895328
-0.016479932 0.027980749 0.022553168 0.014026617 0.01927409 -0.025648797 -0.008352583 -0.03272457
-0.027267972 -0.0015578116 -0.0154822515 -0.0112894 -0.0027171075 0.014507742 -0.0056344816 0.02805592
0.020373477 -0.008090426 -0.027545955 -0.027171226 -0.008185062 -0.009514726 0.030903496 0.027253708
0.0069513856 0.020649042 0.017201439 -0.022136183 0.027691364 0.0002506876 0.032393403 -0.024174977
-0.0039987047 -0.007270988 0.011516623 0.00845515 0.00345465 0.01991419 0.022052674 -0.003764893

linear2.weight f4 [128, 128]
00000000: 848a 41bd b018 8d3d 4757 4b3d 9f96 103c
00000010: 19db a63d a284 a7bb c15b 9e3d 09fe 6b3c
00000020: f35e 7b3d aef6 b4bd ad52 993d b950 1a3c
00000030: c0a7 04bc b923 cfbc 8f0a fbbc c381 36bd
00000040: 7e9b 93bd 1010 9d3d 9c04 43bd 8757 c73b
00000050: 43fb a4bd 92fc b8bd dee8 ca3c ff58 7c3c
00000060: f324 31bd ae4f 7fbd 3d32 8c3d 5fd1 6dbd
00000070: abeb 48bc c490 b03d 9a89 6f3d f463 86bb
00000080: 7400 69bc 8614 84bc 33b8 a1bc 57dd b9bd
00000090: bc4e e43c f872 4e3d 3f9d e53c 8179 483c
000000a0: b6b5 1bbd 889f 863d d7c1 b6bd 28bb 10bd
000000b0: 2a15 603d 6632 cf3c 67af 0dbb e073 0abd
000000c0: 5cab 583d 5353 c1bc cac2 b23c 464c 42bd
000000d0: fe77 6e3c 6bfd 833d 0ee5 573d 1ec1 d33c
000000e0: a882 4b3d 80ca 34bd 6c8e 84bd 1212 993b
000000f0: f36a 473c 058b 8a3a 7e63 acbd 61ad 503d
00000100: 2e94 623d 5159 14bd af3d b03d b1b4 bebb
00000110: 7432 92bb 94c8 7f3d 432a b93c 4973 8dbd
00000120: 41fc 0b3b 679c e5bc eb2f c73c a6f0 813d
00000130: c476 7c3d b50d 80bd bae1 b3bd c182 adbc
00000140: b4db 8abd f103 2dbd 8dc6 73bd 2f9f 6a3d
00000150: d3f1 a23c 3c0a 343d d211 43bd b4dc 373d
00000160: 9f89 5c3d 1c2b 193d 839c dcbc 696a 6e3d
00000170: 585a f6bc 9ac6 253d ed6e 4dbd 3ed8 e53c
00000180: f143 9abd 310c a8bb 6f70 c53b c63c 113d
00000190: d07f 4e3a f3c8 583c 06e2 3dbb c8ab 253d
000001a0: 7d76 863d 28c3 84bd 71ab 89bd 4be4 853d
000001b0: 55b6 083d 7408 02bd 7175 9c3d b727 8f3d
000001c0: a0a3 a13c a865 6b3d cabe 593d e065 283d
000001d0: ea6b 603d 05ff 7a3d 451f 773d 578f b3bd
000001e0: ff9e 83ba 1262 21bd 1995 6c3d 2317 1abc
000001f0: 2f0b 913d b64d abbd c3c0 a4bd e45a 8cbd
00000200: 3bf0 a1bd 57f6 933d c121 eebc 062c c1bc
00000210: fb3e 063c 1c24 99ba 1c02 943d 7625 c4bc
00000220: d2ab 17bd a404 813d 45c2 96bd 97b6 a43d
00000230: 34ab bab9 0082 53bd 60c4 55bd 786c 11bc
00000240: b970 963c 4116 143d 93c0 5e3d cf25 06bd
00000250: 8069 afbd f433 cdbc 9deb 893d 47c8 3a3d
00000260: 1438 72bd 067e 233d 32d0 0abd 6511 a3bd
00000270: 6410 843d bbfe fcbc f5da 273d 6542 413d
00000280: 5522 38bd 8ba1 6dbd 02f9 94bc 58ed 123d
00000290: 4441 013a da3c 3d3c f48c 25bb 3a84 a8bd
000002a0: c619 e13c c80f 023d 0a5f 923d c941 fbbc
000002b0: 4173 8cbd 5aa3 a53d 06a4 8c3d f4c5 a6bc
000002c0: ac48 34bd 7bab a53d 30d2 8d3d 6883 883d
000002d0: 6cad 6c3d 16b6 883c dcb0 213d e935 aebc
000002e0: 9788 06bc 979f eebb 2ecf bb3c 3d4d 013d
000002f0: 04ae 3fbc a027 603d abf6 9dbd d951 973d
00000300: 666d 2b3d d531 2ebd d369 69bd 48c8 9c3d
00000310: 75c5 753d 988b 7d3c 2518 16bd 5670 51bd
00000320: d376 8fbd 24c2 013d 41de 913d da3d d23c
00000330: 4e32 0f3d 296c 49bc c5a4 89bd 8f9d 533d
00000340: 67cb 083c a2e1 7b3d 37e6 8bbd 8ca2 78bc
00000350: cadf 60bd be40 ccbc ff3c 8cbc 8b01 273d
00000360: 517f 5dbd d229 45bd ca5b 0bbd f62c 66bc
00000370: 8b68 4f3d d722 cebc 9653 a1bd 0151 24bd
00000380: 107b 5dbd 4f9c a039 e728 1dbd a475 35bd
00000390: 85b0 a9bd 55ab adbb 128a 69bd ec46 3ebd
000003a0: 5753 aabc b29d 013c 6e6d e2bc ac9c e63a
000003b0: 77ec a5bd 40b4 de3c 2fdb afbd fcd5 923c
000003c0: 7f6d 38bb 6eff fabc 3514 133d e480 46bd
000003d0: 8b1f 22bd 51af 9bbd 2821 0d3d abf7 a1bd
000003e0: 283b 4dbd 4842 703b 7519 3c3d c17b 31bd
000003f0: cb96 853b bf7b 0e3d 8d5e 573d 917e 42bd
-0.04725124 0.068894744 0.04964378 0.008824973 0.08147258 -0.0051122466 0.077323444 0.014403828
0.061369848 -0.08836113 0.07486472 0.00941866 -0.008096635 -0.025285589 -0.030644683 -0.044557344
-0.07207392 0.07669079 -0.047611818 0.006083432 -0.08055737 -0.09032549 0.024769243 0.015402078
-0.04324813 -0.062331848 0.0684552 -0.058061 -0.012263219 0.08621362 0.058480836 -0.004101271
-0.014221299 -0.016123068 -0.019741153 -0.0907542 0.027869575 0.05040261 0.028029082 0.012236
-0.03801509 0.06573397 -0.08923691 -0.035334736 0.054707684 0.025292587 -0.002161944 -0.033801913
0.052897796 -0.023599302 0.021821398 -0.04743602 0.014554976 0.0644482 0.052708678 0.025848921
0.04968515 -0.04413843 -0.06472477 0.0046713436 0.012171495 0.0010569996 -0.08417414 0.050946597
0.055317096 -0.03621799 0.08605515 -0.00581988 -0.004461581 0.062447146 0.02260316 -0.069067545
0.0021360072 -0.02802868 0.024314841 0.06344728 0.0616367 -0.062526144 -0.08783288 -0.021180512
-0.06780186 -0.042240087 -0.059515525 0.057280716 0.019890701 0.043955073 -0.047624417 0.044888213
0.053842183 0.037394628 -0.0269301 0.05820695 -0.030072376 0.040472604 -0.050154615 0.028057214
-0.0753249 -0.0051284065 0.006025366 0.03545835 0.0007877322 0.013231504 -0.0028973832 0.040447026
0.065655686 -0.064825356 -0.06722153 0.06537684 0.03337701 -0.031746343 0.07639588 0.06989997
0.019731343 0.057469994 0.053160466 0.04111278 0.054790415 0.06127836 0.060332555 -0.08767574
-0.0010041891 -0.039400168 0.057759378 -0.00940493 0.07082211 -0.083644316 -0.08044579 -0.068532735
-0.079071485 0.0722472 -0.02906883 -0.023580562 0.008193727 -0.0011683735 0.07226965 -0.023943644
-0.037029095 0.06299713 -0.07361273 0.08042639 -0.0003560424 -0.05163765 -0.05218923 -0.008875959
0.018364297 0.036154035 0.05438287 -0.0327509 -0.085650444 -0.025049187 0.06734393 0.045601156
-0.05913551 0.039915107 -0.033889957 -0.07962302 0.06448439 -0.030883184 0.040980298 0.04718246
-0.044954617 -0.058015388 -0.018185142 0.03587088 0.0004930685 0.011550153 -0.0025261017 -0.08228345
0.02747811 0.03175333 0.071470335 -0.030671017 -0.068579204 0.080877975 0.068672225 -0.020358063
-0.044014618 0.08089348 0.06924856 0.06665689 0.057782575 0.016688388 0.039475307 -0.02126594
-0.0082112765 -0.007282208 0.02292594 0.0315678 -0.011699203 0.05472529 -0.07713064 0.07388658
0.041852377 -0.042527992 -0.056985687 0.07655388 0.060002763 0.015475176 -0.03664412 -0.051132523
-0.07005086 0.031679288 0.0712247 0.025664259 0.034960084 -0.012293854 -0.067208804 0.05166393
0.008349276 0.061494477 -0.06831019 -0.015175473 -0.054900922 -0.024933215 -0.017118929 0.040772956
-0.054076497 -0.048135586 -0.034023084 -0.014048805 0.05063681 -0.025163097 -0.07877271 -0.040116314
-0.05407244 0.00030634037 -0.038369086 -0.044301644 -0.082856216 -0.0052999654 -0.05701644 -0.046454355
-0.020791693 0.007911133 -0.02764007 0.0017594299 -0.08101743 0.02718556 -0.08586728 0.017924301
-0.0028141437 -0.030639376 0.035907943 -0.048462763 -0.039580863 -0.07601798 0.03445545 -0.07908567
-0.050105244 0.00366606 0.045922715 -0.04333091 0.004076814 0.034785982 0.052580405 -0.047483984

linear2.bias f4 [128]
00000000: c75a 4d3c 62ec 183d c4f5 713a 4532 823d
00000010: 27cf f23a 850e c3bc 6a82 43bd 6550 653d
00000020: 45d4 c3bc 8f5e 623d 6365 4fbd 481f 743d
00000030: b560 f4bc 9160 91bd b7ea d03b d7b8 7f3d
00000040: 9cb7 5fbd b6c7 adbd 197d 88bd 3fd2 673d
00000050: 7d81 05bc 99da 4dbd 8034 313d 6e99 61bd
00000060: 7b37 a2bd c729 5d3d 9e74 5f3d ba1e 9e3d
00000070: 351e 313d e2c7 103d 9b17 803d a151 6fbd
00000080: 3487 b4bd 2616 18bd 0443 ae3c 7795 a63d
00000090: f0c3 5b3d 08ca e63c 8d7b 4fbd 4711 00bd
000000a0: 1caa a7bb 3d1b 453d 4cec 20bc 5aa7 49bd
000000b0: 00f3 c33c e85a 12bd 24fb 8d3d 065e 6e3c
000000c0: 319d cb3c 1de8 cbbc fdb6 4bbc ea6e 9e3d
000000d0: 2c54 733d 0425 703d 1405 a33c 5375 1cbd
000000e0: 58ea 81bd 1c1a bc3c fd24 003d 0c68 273c
000000f0: d6a1 0ebd eea5 c43c 252d 82bd a527 183d
00000100: d928 9bbd 9fef 1c3d e5a2 a3bd 2721 fcbc
00000110: eabc 3a3d 1167 69bd da12 78bb 6e21 49bc
00000120: 3baa 22bb c13d 72bd 2784 85bc 06e6 5fbd
00000130: c166 4fbd 6dea a3bd 7d00 30bd eb2c 3ebd
00000140: 0f52 f63c fe2f 183d ad9a 48bc 4ba1 9abd
00000150: 5121 833d da1f 57bd d84c 9dbd d5a3 973d
00000160: d083 033b e21e 823d 2797 c4bc efea 853d
00000170: 4e24 fbbb f78a 2abd 5035 003d 7a7b a2bd
00000180: 959a 3ebd 5db7 343c 185b b5bc 3eac 42bd
00000190: b454 40bd 66a2 db3b a226 d9bb 7c22 423d
000001a0: bbcb f13b a553 4ebd 7484 d53c 7f31 2c3d
000001b0: f792 9b3d 39bc 193d 738c 173d d9be 1ebd
000001c0: 6f52 ff3b b508 2f3c 19f6 a5bd e579 2d3d
000001d0: 082d a9bb b639 6f3d 91bd 12bd 61e2 943c
000001e0: e804 36bc 81ae 4fbc 7d5e 93bb 1959 7cbd
000001f0: 4dca 4b3c b523 8dbb 2870 6cbd 4ee7 b4bd
0.01253385 0.037334807 0.00092300423 0.063572444 0.0018524871 -0.023810634 -0.047731794 0.055984873
-0.023904929 0.05526596 -0.0506338 0.059600145 -0.02983127 -0.07098497 0.0063756364 0.062432136
-0.054618463 -0.084853575 -0.066644855 0.05659699 -0.008148548 -0.0502573 0.04326296 -0.055077963
-0.07920738 0.05399492 0.054554574 0.077207044 0.0432417 0.035346873 0.062545024 -0.058427457
-0.088148504 -0.037130497 0.02127219 0.08133977 0.053653657 0.028172508 -0.050654937 -0.031266477
-0.005116714 0.04812168 -0.009821963 -0.049231865 0.023919582 -0.035731226 0.06932667 0.014548784
0.024855228 -0.024890954 -0.0124337645 0.07735999 0.059406444 0.05862905 0.019899882 -0.038197827
-0.06343526 0.022961669 0.031285275 0.010217678 -0.034822308 0.024004903 -0.06356267 0.037147183
-0.075761504 0.038314458 -0.07990054 -0.030777527 0.04559032 -0.056983057 -0.0037853033 -0.012276037
-0.0024820704 -0.059140924 -0.016298367 -0.054662727 -0.050635103 -0.080036975 -0.042969216 -0.046429556
0.030068425 0.037155144 -0.012243909 -0.075502954 0.06402839 -0.05252061 -0.076806724 0.07404295
0.002006758 0.06353547 -0.023997856 0.06538951 -0.00766424 -0.041636433 0.031300843 -0.079337075
-0.04653414 0.011030045 -0.022138163 -0.047527544 -0.04695578 0.006702709 -0.00662692 0.047396168
0.007379023 -0.05037274 0.026064135 0.04203939 0.07596391 0.03753302 0.036999177 -0.038756225
0.0077918093 0.010683228 -0.0810358 0.042352576 -0.005162839 0.058404647 -0.035825316 0.018174352
-0.011109568 -0.012675882 -0.004497348 -0.061608408 0.012438369 -0.004307235 -0.057724148 -0.0883318

linear3.weight f4 [10, 128]
00000000: 40e0 863d 96c3 5c3d 9fe9 f3bc aa3d 8d3d
00000010: a3b1 1c3d 5000 923d 3b29 a83d 3db8 c5bc
00000020: b983 7abc f3c5 133c f9ad a2bd b49b 8bbc
00000030: 7ccf 973d 92bf 31bd ee95 62bd 246e 8f3d
00000040: f219 8d3c 9dca 14bd 0ca2 0ebc dee9 8fbd
00000050: 3f50 803c 83c3 d2bb d3cc 79bd 3c6d 33bc
00000060: 7cf1 093d c467 a63d 594c a53d bd00 f23c
00000070: e879 713b 370c 7dbc 4889 a43d da4d 14bd
00000080: 0016 b13c c0e3 9bbd 7cc1 80bd 0c87 173c
00000090: 673a 6bbd a4d4 aabd 941c 493c a60b 393c
000000a0: e1bf 04bb 3336 fb3c 3ebc a73d 26d8 31bd
000000b0: 582c 913c 9ca0 c13b 25d3 003d 6583 bf3a
000000c0: 0f37 8dbd 8383 793c 15e9 99bd e9aa 9abc
000000d0: 6b2e 533d 86e3 ff3c 3b9f 273d 3242 3fba
000000e0: cd1e a93c 266e e83c 00b3 d3bc d7c4 90bb
000000f0: a306 533d fc84 963d 826d 8f3d befa 35ba
00000100: ccc6 e9bc 3d50 1cbd af11 7a3c c5ee 54bd
00000110: da3a 413d 1647 abbc c233 f13c a304 373d
00000120: 0007 66bd 6164 553d 806a 653d 22c9 b4bc
00000130: 63fc 88bc c649 b4bd 03a8 9abd 4c1d 62bc
00000140: a859 083d ef6e afbc c696 a3bb c035 b93c
00000150: f41e 8e3d 6c62 083c 72a6 e43c ac9c 923c
00000160: 5b47 103c e414 2b3d 5e7e 353d ed7a 833d
00000170: d67e 5ebd 6b52 343c d373 5f3d 2e11 46bc
00000180: d878 acbc b550 a43d 3429 78bd 5383 f63c
00000190: 39d2 9dbd 55bc 3f3d e2c4 653d c773 a83c
000001a0: 6e7e 993c bfc5 a6bd a5eb a2bd 5f21 603d
000001b0: f02d a4bc c258 bf3c c46d 88bd 3ea6 74bd
000001c0: ba50 91bd f903 173d 7da5 6b3d df49 943d
000001d0: 0d51 e9bc e9cc 76bd e508 c4bd 0f70 78bd
000001e0: 063b 24bb 7576 70bd b8b4 61bd 33e6 2cbd
000001f0: c1ed 80bd 1702 bebd 310b 913d 7de3 a5bd
00000200: bee5 8d3d fbb1 953d ae3a f8bc 0090 663d
00000210: f6a7 963d 3d58 773d 4ab6 81bd 4cb6 d33b
00000220: 09d1 9f3d 88d2 15bd 7c06 a2bc e76d 8fbc
00000230: ec25 3cbd 6208 4abd ffeb 773d b5b9 d13c
00000240: 307f 833d 7bb7 f5bc 53f0 9c3d f41e 97bd
00000250: 9be2 383d 7a27 543d ec6d 4ebd 893d 863d
00000260: cb35 8a3d 5fe8 2939 e243 92bd bb89 8d3d
00000270: 7986 89bd 5976 1ebd 0ffb c73c c723 403c
00000280: 909b e13c 7c65 74bc bacb 74bd 8aeb 9d3d
00000290: a757 b9bd f6d7 4e3d 7c33 fc3c ec4c b6bd
000002a0: 167b 1e3d 3fbb 033d dda2 bb3d 6524 a13b
000002b0: 6627 7cbd ef42 a43d 5201 523d 7f32 673d
000002c0: 6849 9dbd 5dc2 30bc 8ad9 06bc 0edb 363d
000002d0: be94 1e3d 9167 82bd fb44 7abd 9dca 22bd
000002e0: 5287 db3c 4882 553d 1cd0 3d3d 17c1 673d
000002f0: a6f0 11bc e324 8b3c d4fd 243c ab51 fcbc
00000300: 056d 6a3d 06f6 213d 7589 d8bc 70f9 623c
00000310: 070e 7a3d 7abd a8bd ef38 60bc 51dc 773b
00000320: b38a 24bd 75a0 dd3c 8163 d7bc 68b4 363d
00000330: 5f50 0f3c 27d3 7e3d c3a6 36bd bf6b a83d
00000340: 3d68 0bbd 7008 ef3c e3a0 4fbd 9720 9abc
00000350: fa47 48bd 31b5 0a3b 2323 50bd 37d5 223d
00000360: dae6 b83c 8b7d 2d3d 3667 933c ea5e 3d3d
00000370: e4e3 a53c 379c a6bc 31c6 16bd 5862 3a3d
00000380: b2f6 93bc 611b 6ebc c9e8 a73d 79db 533d
00000390: 32e4 4bbd 1a77 68bd 43ca 88bd 1c76 9abd
000003a0: 0769 be3d f9a9 8c3c 385a 9e3d c113 c73c
000003b0: ed2a 5c3d 07d6 acbb f8f3 98bb 5d51 88bd
000003c0: dd9f ab3c cde1 3db9 c97d 093d 7fc4 68bd
000003d0: c481 ad3d 0dbb a8bd 2a37 f9ba 7027 233d
000003e0: 1082 55bc 1f59 8f3d b549 83bd ef56 083d
000003f0: 0789 0dbd b356 1abb a29e 6d3d 8c36 4c3d
0.06585741 0.053897463 -0.029774485 0.06896527 0.038255345 0.07128966 0.08210989 -0.024135703
-0.015290194 0.009019363 -0.07943339 -0.017042018 0.074126214 -0.043395586 -0.055318765 0.070034295
0.017224286 -0.03632604 -0.008705627 -0.070270285 0.015663264 -0.006431998 -0.06098635 -0.0109513365
0.033677563 0.081252605 0.08071203 0.029541368 0.0036846343 -0.015444807 0.08033997 -0.036207058
0.021616936 -0.07611799 -0.06286904 0.009248506 -0.057428744 -0.08341339 0.01227488 0.011294281
-0.002025597 0.030665493 0.08190201 -0.043419026 0.01772134 0.0059090387 0.031451363 0.0014611302
-0.06895267 0.015229109 -0.0751516 -0.018880324 0.05155794 0.031236421 0.04092334 -0.00072959356
0.02064457 0.028372835 -0.02584219 -0.0044179964 0.05152 0.073495835 0.07003309 -0.00069419655
-0.028537177 -0.03816246 0.015263005 -0.05198552 0.047175266 -0.02090792 0.029443625 0.044682156
-0.05615902 0.052097682 0.05600977 -0.022068564 -0.01672191 -0.08803134 -0.07551577 -0.01380093
0.033288628 -0.021415202 -0.004992339 0.022608638 0.069394976 0.008324247 0.027911399 0.017896973
0.008806075 0.04176797 0.044309966 0.064199306 -0.05432018 0.011005978 0.054553818 -0.012089057
-0.021053717 0.08023206 -0.06058617 0.030091917 -0.077061124 0.046810467 0.056095965 0.02056302
0.018737044 -0.08143186 -0.07955102 0.054719325 -0.020041436 0.023357753 -0.06661561 -0.059728853
-0.070954755 0.036869023 0.05753087 0.07240652 -0.02848103 -0.06025401 -0.09572009 -0.060653742
-0.0025059595 -0.05870672 -0.055103987 -0.042211723 -0.06295348 -0.09277742 0.07082213 -0.081000306
0.069285855 0.07309338 -0.030301418 0.056289673 0.07356255 0.060386885 -0.06333597 0.0064609405
0.07803542 -0.03657773 -0.019778483 -0.01750846 -0.045934603 -0.0493244 0.060527798 0.025601247
0.064207435 -0.029994717 0.07663026 -0.07378951 0.045137983 0.05179546 -0.0503978 0.06554706
0.067485414 0.00016203661 -0.07141854 0.069110356 -0.06715102 -0.038687084 0.024411706 0.01172728
0.027539998 -0.014916774 -0.0597646 0.07710941 -0.090499215 0.050498925 0.030786268 -0.089013904
0.038691603 0.032160994 0.09161923 0.0049176686 -0.06156101 0.08020579 0.05127079 0.05644464
-0.07680017 -0.010788527 -0.008230576 0.0446425 0.03871607 -0.0636741 -0.06110094 -0.03974401
0.026797924 0.0521262 0.046341047 0.05658063 -0.008907473 0.016985362 0.010070283 -0.030800661
0.057232875 0.039541267 -0.026432732 0.013853416 0.061048534 -0.08239265 -0.013685449 0.0037820528
-0.040171336 0.027054051 -0.026292564 0.044605643 0.008747189 0.06221309 -0.04459263 0.08223676
-0.034034956 0.029178828 -0.050690543 -0.018814368 -0.048896767 0.0021165127 -0.05081476 0.03975412
0.022571016 0.042356055 0.01799355 0.046233095 0.020250268 -0.02033816 -0.036810104 0.045503944
-0.01806197 -0.014532895 0.08198697 0.051722977 -0.04977817 -0.05675421 -0.06679203 -0.07542059
0.09297376 0.017170893 0.077320516 0.024301412 0.053751875 -0.0052745375 -0.004667755 -0.06656144
0.020950252 -0.00018108562 0.033567224 -0.05682802 0.084720165 -0.08238802 -0.0019013633 0.039832532
-0.013031498 0.069994204 -0.06410543 0.03328603 -0.034554508 -0.0023550212 0.058012612 0.049856707

linear3.bias f4 [10]
00000000: 6d2e a1bc 54ea 6e3c ab1a a2bd b8fd f73c
00000010: 57d6 8d3d 1123 82bd 25a7 eebc e2d5 853d
00000020: e2a6 533d 284b fdbc
-0.019675458 0.014582235 -0.07915243 0.03027235 0.06925648 -0.06354345 -0.029132435 0.065349355
0.051672824 -0.030919626
